{"format": "graph-model", "generatedBy": "2.18.0", "convertedBy": "TensorFlow.js Converter v4.22.0", "signature": {"inputs": {"keras_tensor_132": {"name": "keras_tensor_132:0", "dtype": "DT_FLOAT", "tensorShape": {"dim": [{"size": "-1"}, {"size": "224"}, {"size": "224"}, {"size": "3"}]}}}, "outputs": {"output_0": {"name": "Identity:0", "dtype": "DT_FLOAT", "tensorShape": {"dim": [{"size": "-1"}, {"size": "7"}]}}}}, "modelTopology": {"node": [{"name": "StatefulPartitionedCall/sequential_1/xception_1/block13_sepconv1_1/separable_conv2d/ReadVariableOp", "op": "Const", "attr": {"value": {"tensor": {"dtype": "DT_FLOAT", "tensorShape": {"dim": [{"size": "3"}, {"size": "3"}, {"size": "728"}, {"size": "1"}]}}}, "dtype": {"type": "DT_FLOAT"}}}, {"name": "StatefulPartitionedCall/sequential_1/xception_1/block13_sepconv1_1/separable_conv2d/merged_input", "op": "Const", "attr": {"value": {"tensor": {"dtype": "DT_FLOAT", "tensorShape": {"dim": [{"size": "1"}, {"size": "1"}, {"size": "728"}, {"size": "728"}]}}}, "dtype": {"type": "DT_FLOAT"}}}, {"name": "StatefulPartitionedCall/sequential_1/xception_1/block13_sepconv1_bn_1/batchnorm/sub", "op": "Const", "attr": {"value": {"tensor": {"dtype": "DT_FLOAT", "tensorShape": {"dim": [{"size": "728"}]}}}, "dtype": {"type": "DT_FLOAT"}}}, {"name": "StatefulPartitionedCall/sequential_1/xception_1/block13_sepconv2_1/separable_conv2d/ReadVariableOp", "op": "Const", "attr": {"value": {"tensor": {"dtype": "DT_FLOAT", "tensorShape": {"dim": [{"size": "3"}, {"size": "3"}, {"size": "728"}, {"size": "1"}]}}}, "dtype": {"type": "DT_FLOAT"}}}, {"name": "StatefulPartitionedCall/sequential_1/xception_1/block13_sepconv2_1/separable_conv2d/merged_input", "op": "Const", "attr": {"value": {"tensor": {"dtype": "DT_FLOAT", "tensorShape": {"dim": [{"size": "1"}, {"size": "1"}, {"size": "728"}, {"size": "1024"}]}}}, "dtype": {"type": "DT_FLOAT"}}}, {"name": "StatefulPartitionedCall/sequential_1/xception_1/block13_sepconv2_bn_1/batchnorm/sub", "op": "Const", "attr": {"value": {"tensor": {"dtype": "DT_FLOAT", "tensorShape": {"dim": [{"size": "1024"}]}}}, "dtype": {"type": "DT_FLOAT"}}}, {"name": "StatefulPartitionedCall/sequential_1/xception_1/block12_sepconv1_1/separable_conv2d/ReadVariableOp", "op": "Const", "attr": {"value": {"tensor": {"dtype": "DT_FLOAT", "tensorShape": {"dim": [{"size": "3"}, {"size": "3"}, {"size": "728"}, {"size": "1"}]}}}, "dtype": {"type": "DT_FLOAT"}}}, {"name": "StatefulPartitionedCall/sequential_1/xception_1/block12_sepconv1_1/separable_conv2d/merged_input", "op": "Const", "attr": {"value": {"tensor": {"dtype": "DT_FLOAT", "tensorShape": {"dim": [{"size": "1"}, {"size": "1"}, {"size": "728"}, {"size": "728"}]}}}, "dtype": {"type": "DT_FLOAT"}}}, {"name": "StatefulPartitionedCall/sequential_1/xception_1/block12_sepconv1_bn_1/batchnorm/sub", "op": "Const", "attr": {"value": {"tensor": {"dtype": "DT_FLOAT", "tensorShape": {"dim": [{"size": "728"}]}}}, "dtype": {"type": "DT_FLOAT"}}}, {"name": "StatefulPartitionedCall/sequential_1/xception_1/block12_sepconv2_1/separable_conv2d/ReadVariableOp", "op": "Const", "attr": {"value": {"tensor": {"dtype": "DT_FLOAT", "tensorShape": {"dim": [{"size": "3"}, {"size": "3"}, {"size": "728"}, {"size": "1"}]}}}, "dtype": {"type": "DT_FLOAT"}}}, {"name": "StatefulPartitionedCall/sequential_1/xception_1/block12_sepconv2_1/separable_conv2d/merged_input", "op": "Const", "attr": {"value": {"tensor": {"dtype": "DT_FLOAT", "tensorShape": {"dim": [{"size": "1"}, {"size": "1"}, {"size": "728"}, {"size": "728"}]}}}, "dtype": {"type": "DT_FLOAT"}}}, {"name": "StatefulPartitionedCall/sequential_1/xception_1/block12_sepconv2_bn_1/batchnorm/sub", "op": "Const", "attr": {"value": {"tensor": {"dtype": "DT_FLOAT", "tensorShape": {"dim": [{"size": "728"}]}}}, "dtype": {"type": "DT_FLOAT"}}}, {"name": "StatefulPartitionedCall/sequential_1/xception_1/block12_sepconv3_1/separable_conv2d/ReadVariableOp", "op": "Const", "attr": {"value": {"tensor": {"dtype": "DT_FLOAT", "tensorShape": {"dim": [{"size": "3"}, {"size": "3"}, {"size": "728"}, {"size": "1"}]}}}, "dtype": {"type": "DT_FLOAT"}}}, {"name": "StatefulPartitionedCall/sequential_1/xception_1/block12_sepconv3_1/separable_conv2d/merged_input", "op": "Const", "attr": {"value": {"tensor": {"dtype": "DT_FLOAT", "tensorShape": {"dim": [{"size": "1"}, {"size": "1"}, {"size": "728"}, {"size": "728"}]}}}, "dtype": {"type": "DT_FLOAT"}}}, {"name": "StatefulPartitionedCall/sequential_1/xception_1/block12_sepconv3_bn_1/batchnorm/sub", "op": "Const", "attr": {"value": {"tensor": {"dtype": "DT_FLOAT", "tensorShape": {"dim": [{"size": "728"}]}}}, "dtype": {"type": "DT_FLOAT"}}}, {"name": "StatefulPartitionedCall/sequential_1/xception_1/block11_sepconv1_1/separable_conv2d/ReadVariableOp", "op": "Const", "attr": {"value": {"tensor": {"dtype": "DT_FLOAT", "tensorShape": {"dim": [{"size": "3"}, {"size": "3"}, {"size": "728"}, {"size": "1"}]}}}, "dtype": {"type": "DT_FLOAT"}}}, {"name": "StatefulPartitionedCall/sequential_1/xception_1/block11_sepconv1_1/separable_conv2d/merged_input", "op": "Const", "attr": {"value": {"tensor": {"dtype": "DT_FLOAT", "tensorShape": {"dim": [{"size": "1"}, {"size": "1"}, {"size": "728"}, {"size": "728"}]}}}, "dtype": {"type": "DT_FLOAT"}}}, {"name": "StatefulPartitionedCall/sequential_1/xception_1/block11_sepconv1_bn_1/batchnorm/sub", "op": "Const", "attr": {"value": {"tensor": {"dtype": "DT_FLOAT", "tensorShape": {"dim": [{"size": "728"}]}}}, "dtype": {"type": "DT_FLOAT"}}}, {"name": "StatefulPartitionedCall/sequential_1/xception_1/block11_sepconv2_1/separable_conv2d/ReadVariableOp", "op": "Const", "attr": {"value": {"tensor": {"dtype": "DT_FLOAT", "tensorShape": {"dim": [{"size": "3"}, {"size": "3"}, {"size": "728"}, {"size": "1"}]}}}, "dtype": {"type": "DT_FLOAT"}}}, {"name": "StatefulPartitionedCall/sequential_1/xception_1/block11_sepconv2_1/separable_conv2d/merged_input", "op": "Const", "attr": {"value": {"tensor": {"dtype": "DT_FLOAT", "tensorShape": {"dim": [{"size": "1"}, {"size": "1"}, {"size": "728"}, {"size": "728"}]}}}, "dtype": {"type": "DT_FLOAT"}}}, {"name": "StatefulPartitionedCall/sequential_1/xception_1/block11_sepconv2_bn_1/batchnorm/sub", "op": "Const", "attr": {"value": {"tensor": {"dtype": "DT_FLOAT", "tensorShape": {"dim": [{"size": "728"}]}}}, "dtype": {"type": "DT_FLOAT"}}}, {"name": "StatefulPartitionedCall/sequential_1/xception_1/block11_sepconv3_1/separable_conv2d/ReadVariableOp", "op": "Const", "attr": {"value": {"tensor": {"dtype": "DT_FLOAT", "tensorShape": {"dim": [{"size": "3"}, {"size": "3"}, {"size": "728"}, {"size": "1"}]}}}, "dtype": {"type": "DT_FLOAT"}}}, {"name": "StatefulPartitionedCall/sequential_1/xception_1/block11_sepconv3_1/separable_conv2d/merged_input", "op": "Const", "attr": {"value": {"tensor": {"dtype": "DT_FLOAT", "tensorShape": {"dim": [{"size": "1"}, {"size": "1"}, {"size": "728"}, {"size": "728"}]}}}, "dtype": {"type": "DT_FLOAT"}}}, {"name": "StatefulPartitionedCall/sequential_1/xception_1/block11_sepconv3_bn_1/batchnorm/sub", "op": "Const", "attr": {"value": {"tensor": {"dtype": "DT_FLOAT", "tensorShape": {"dim": [{"size": "728"}]}}}, "dtype": {"type": "DT_FLOAT"}}}, {"name": "StatefulPartitionedCall/sequential_1/xception_1/block10_sepconv1_1/separable_conv2d/ReadVariableOp", "op": "Const", "attr": {"value": {"tensor": {"dtype": "DT_FLOAT", "tensorShape": {"dim": [{"size": "3"}, {"size": "3"}, {"size": "728"}, {"size": "1"}]}}}, "dtype": {"type": "DT_FLOAT"}}}, {"name": "StatefulPartitionedCall/sequential_1/xception_1/block10_sepconv1_1/separable_conv2d/merged_input", "op": "Const", "attr": {"value": {"tensor": {"dtype": "DT_FLOAT", "tensorShape": {"dim": [{"size": "1"}, {"size": "1"}, {"size": "728"}, {"size": "728"}]}}}, "dtype": {"type": "DT_FLOAT"}}}, {"name": "StatefulPartitionedCall/sequential_1/xception_1/block10_sepconv1_bn_1/batchnorm/sub", "op": "Const", "attr": {"value": {"tensor": {"dtype": "DT_FLOAT", "tensorShape": {"dim": [{"size": "728"}]}}}, "dtype": {"type": "DT_FLOAT"}}}, {"name": "StatefulPartitionedCall/sequential_1/xception_1/block10_sepconv2_1/separable_conv2d/ReadVariableOp", "op": "Const", "attr": {"value": {"tensor": {"dtype": "DT_FLOAT", "tensorShape": {"dim": [{"size": "3"}, {"size": "3"}, {"size": "728"}, {"size": "1"}]}}}, "dtype": {"type": "DT_FLOAT"}}}, {"name": "StatefulPartitionedCall/sequential_1/xception_1/block10_sepconv2_1/separable_conv2d/merged_input", "op": "Const", "attr": {"value": {"tensor": {"dtype": "DT_FLOAT", "tensorShape": {"dim": [{"size": "1"}, {"size": "1"}, {"size": "728"}, {"size": "728"}]}}}, "dtype": {"type": "DT_FLOAT"}}}, {"name": "StatefulPartitionedCall/sequential_1/xception_1/block10_sepconv2_bn_1/batchnorm/sub", "op": "Const", "attr": {"value": {"tensor": {"dtype": "DT_FLOAT", "tensorShape": {"dim": [{"size": "728"}]}}}, "dtype": {"type": "DT_FLOAT"}}}, {"name": "StatefulPartitionedCall/sequential_1/xception_1/block10_sepconv3_1/separable_conv2d/ReadVariableOp", "op": "Const", "attr": {"value": {"tensor": {"dtype": "DT_FLOAT", "tensorShape": {"dim": [{"size": "3"}, {"size": "3"}, {"size": "728"}, {"size": "1"}]}}}, "dtype": {"type": "DT_FLOAT"}}}, {"name": "StatefulPartitionedCall/sequential_1/xception_1/block10_sepconv3_1/separable_conv2d/merged_input", "op": "Const", "attr": {"value": {"tensor": {"dtype": "DT_FLOAT", "tensorShape": {"dim": [{"size": "1"}, {"size": "1"}, {"size": "728"}, {"size": "728"}]}}}, "dtype": {"type": "DT_FLOAT"}}}, {"name": "StatefulPartitionedCall/sequential_1/xception_1/block10_sepconv3_bn_1/batchnorm/sub", "op": "Const", "attr": {"value": {"tensor": {"dtype": "DT_FLOAT", "tensorShape": {"dim": [{"size": "728"}]}}}, "dtype": {"type": "DT_FLOAT"}}}, {"name": "StatefulPartitionedCall/sequential_1/xception_1/block9_sepconv1_1/separable_conv2d/ReadVariableOp", "op": "Const", "attr": {"value": {"tensor": {"dtype": "DT_FLOAT", "tensorShape": {"dim": [{"size": "3"}, {"size": "3"}, {"size": "728"}, {"size": "1"}]}}}, "dtype": {"type": "DT_FLOAT"}}}, {"name": "StatefulPartitionedCall/sequential_1/xception_1/block9_sepconv1_1/separable_conv2d/merged_input", "op": "Const", "attr": {"value": {"tensor": {"dtype": "DT_FLOAT", "tensorShape": {"dim": [{"size": "1"}, {"size": "1"}, {"size": "728"}, {"size": "728"}]}}}, "dtype": {"type": "DT_FLOAT"}}}, {"name": "StatefulPartitionedCall/sequential_1/xception_1/block9_sepconv1_bn_1/batchnorm/sub", "op": "Const", "attr": {"value": {"tensor": {"dtype": "DT_FLOAT", "tensorShape": {"dim": [{"size": "728"}]}}}, "dtype": {"type": "DT_FLOAT"}}}, {"name": "StatefulPartitionedCall/sequential_1/xception_1/block9_sepconv2_1/separable_conv2d/ReadVariableOp", "op": "Const", "attr": {"value": {"tensor": {"dtype": "DT_FLOAT", "tensorShape": {"dim": [{"size": "3"}, {"size": "3"}, {"size": "728"}, {"size": "1"}]}}}, "dtype": {"type": "DT_FLOAT"}}}, {"name": "StatefulPartitionedCall/sequential_1/xception_1/block9_sepconv2_1/separable_conv2d/merged_input", "op": "Const", "attr": {"value": {"tensor": {"dtype": "DT_FLOAT", "tensorShape": {"dim": [{"size": "1"}, {"size": "1"}, {"size": "728"}, {"size": "728"}]}}}, "dtype": {"type": "DT_FLOAT"}}}, {"name": "StatefulPartitionedCall/sequential_1/xception_1/block9_sepconv2_bn_1/batchnorm/sub", "op": "Const", "attr": {"value": {"tensor": {"dtype": "DT_FLOAT", "tensorShape": {"dim": [{"size": "728"}]}}}, "dtype": {"type": "DT_FLOAT"}}}, {"name": "StatefulPartitionedCall/sequential_1/xception_1/block9_sepconv3_1/separable_conv2d/ReadVariableOp", "op": "Const", "attr": {"value": {"tensor": {"dtype": "DT_FLOAT", "tensorShape": {"dim": [{"size": "3"}, {"size": "3"}, {"size": "728"}, {"size": "1"}]}}}, "dtype": {"type": "DT_FLOAT"}}}, {"name": "StatefulPartitionedCall/sequential_1/xception_1/block9_sepconv3_1/separable_conv2d/merged_input", "op": "Const", "attr": {"value": {"tensor": {"dtype": "DT_FLOAT", "tensorShape": {"dim": [{"size": "1"}, {"size": "1"}, {"size": "728"}, {"size": "728"}]}}}, "dtype": {"type": "DT_FLOAT"}}}, {"name": "StatefulPartitionedCall/sequential_1/xception_1/block9_sepconv3_bn_1/batchnorm/sub", "op": "Const", "attr": {"value": {"tensor": {"dtype": "DT_FLOAT", "tensorShape": {"dim": [{"size": "728"}]}}}, "dtype": {"type": "DT_FLOAT"}}}, {"name": "StatefulPartitionedCall/sequential_1/xception_1/block8_sepconv1_1/separable_conv2d/ReadVariableOp", "op": "Const", "attr": {"value": {"tensor": {"dtype": "DT_FLOAT", "tensorShape": {"dim": [{"size": "3"}, {"size": "3"}, {"size": "728"}, {"size": "1"}]}}}, "dtype": {"type": "DT_FLOAT"}}}, {"name": "StatefulPartitionedCall/sequential_1/xception_1/block8_sepconv1_1/separable_conv2d/merged_input", "op": "Const", "attr": {"value": {"tensor": {"dtype": "DT_FLOAT", "tensorShape": {"dim": [{"size": "1"}, {"size": "1"}, {"size": "728"}, {"size": "728"}]}}}, "dtype": {"type": "DT_FLOAT"}}}, {"name": "StatefulPartitionedCall/sequential_1/xception_1/block8_sepconv1_bn_1/batchnorm/sub", "op": "Const", "attr": {"value": {"tensor": {"dtype": "DT_FLOAT", "tensorShape": {"dim": [{"size": "728"}]}}}, "dtype": {"type": "DT_FLOAT"}}}, {"name": "StatefulPartitionedCall/sequential_1/xception_1/block8_sepconv2_1/separable_conv2d/ReadVariableOp", "op": "Const", "attr": {"value": {"tensor": {"dtype": "DT_FLOAT", "tensorShape": {"dim": [{"size": "3"}, {"size": "3"}, {"size": "728"}, {"size": "1"}]}}}, "dtype": {"type": "DT_FLOAT"}}}, {"name": "StatefulPartitionedCall/sequential_1/xception_1/block8_sepconv2_1/separable_conv2d/merged_input", "op": "Const", "attr": {"value": {"tensor": {"dtype": "DT_FLOAT", "tensorShape": {"dim": [{"size": "1"}, {"size": "1"}, {"size": "728"}, {"size": "728"}]}}}, "dtype": {"type": "DT_FLOAT"}}}, {"name": "StatefulPartitionedCall/sequential_1/xception_1/block8_sepconv2_bn_1/batchnorm/sub", "op": "Const", "attr": {"value": {"tensor": {"dtype": "DT_FLOAT", "tensorShape": {"dim": [{"size": "728"}]}}}, "dtype": {"type": "DT_FLOAT"}}}, {"name": "StatefulPartitionedCall/sequential_1/xception_1/block8_sepconv3_1/separable_conv2d/ReadVariableOp", "op": "Const", "attr": {"value": {"tensor": {"dtype": "DT_FLOAT", "tensorShape": {"dim": [{"size": "3"}, {"size": "3"}, {"size": "728"}, {"size": "1"}]}}}, "dtype": {"type": "DT_FLOAT"}}}, {"name": "StatefulPartitionedCall/sequential_1/xception_1/block8_sepconv3_1/separable_conv2d/merged_input", "op": "Const", "attr": {"value": {"tensor": {"dtype": "DT_FLOAT", "tensorShape": {"dim": [{"size": "1"}, {"size": "1"}, {"size": "728"}, {"size": "728"}]}}}, "dtype": {"type": "DT_FLOAT"}}}, {"name": "StatefulPartitionedCall/sequential_1/xception_1/block8_sepconv3_bn_1/batchnorm/sub", "op": "Const", "attr": {"value": {"tensor": {"dtype": "DT_FLOAT", "tensorShape": {"dim": [{"size": "728"}]}}}, "dtype": {"type": "DT_FLOAT"}}}, {"name": "StatefulPartitionedCall/sequential_1/xception_1/block7_sepconv1_1/separable_conv2d/ReadVariableOp", "op": "Const", "attr": {"value": {"tensor": {"dtype": "DT_FLOAT", "tensorShape": {"dim": [{"size": "3"}, {"size": "3"}, {"size": "728"}, {"size": "1"}]}}}, "dtype": {"type": "DT_FLOAT"}}}, {"name": "StatefulPartitionedCall/sequential_1/xception_1/block7_sepconv1_1/separable_conv2d/merged_input", "op": "Const", "attr": {"value": {"tensor": {"dtype": "DT_FLOAT", "tensorShape": {"dim": [{"size": "1"}, {"size": "1"}, {"size": "728"}, {"size": "728"}]}}}, "dtype": {"type": "DT_FLOAT"}}}, {"name": "StatefulPartitionedCall/sequential_1/xception_1/block7_sepconv1_bn_1/batchnorm/sub", "op": "Const", "attr": {"value": {"tensor": {"dtype": "DT_FLOAT", "tensorShape": {"dim": [{"size": "728"}]}}}, "dtype": {"type": "DT_FLOAT"}}}, {"name": "StatefulPartitionedCall/sequential_1/xception_1/block7_sepconv2_1/separable_conv2d/ReadVariableOp", "op": "Const", "attr": {"value": {"tensor": {"dtype": "DT_FLOAT", "tensorShape": {"dim": [{"size": "3"}, {"size": "3"}, {"size": "728"}, {"size": "1"}]}}}, "dtype": {"type": "DT_FLOAT"}}}, {"name": "StatefulPartitionedCall/sequential_1/xception_1/block7_sepconv2_1/separable_conv2d/merged_input", "op": "Const", "attr": {"value": {"tensor": {"dtype": "DT_FLOAT", "tensorShape": {"dim": [{"size": "1"}, {"size": "1"}, {"size": "728"}, {"size": "728"}]}}}, "dtype": {"type": "DT_FLOAT"}}}, {"name": "StatefulPartitionedCall/sequential_1/xception_1/block7_sepconv2_bn_1/batchnorm/sub", "op": "Const", "attr": {"value": {"tensor": {"dtype": "DT_FLOAT", "tensorShape": {"dim": [{"size": "728"}]}}}, "dtype": {"type": "DT_FLOAT"}}}, {"name": "StatefulPartitionedCall/sequential_1/xception_1/block7_sepconv3_1/separable_conv2d/ReadVariableOp", "op": "Const", "attr": {"value": {"tensor": {"dtype": "DT_FLOAT", "tensorShape": {"dim": [{"size": "3"}, {"size": "3"}, {"size": "728"}, {"size": "1"}]}}}, "dtype": {"type": "DT_FLOAT"}}}, {"name": "StatefulPartitionedCall/sequential_1/xception_1/block7_sepconv3_1/separable_conv2d/merged_input", "op": "Const", "attr": {"value": {"tensor": {"dtype": "DT_FLOAT", "tensorShape": {"dim": [{"size": "1"}, {"size": "1"}, {"size": "728"}, {"size": "728"}]}}}, "dtype": {"type": "DT_FLOAT"}}}, {"name": "StatefulPartitionedCall/sequential_1/xception_1/block7_sepconv3_bn_1/batchnorm/sub", "op": "Const", "attr": {"value": {"tensor": {"dtype": "DT_FLOAT", "tensorShape": {"dim": [{"size": "728"}]}}}, "dtype": {"type": "DT_FLOAT"}}}, {"name": "StatefulPartitionedCall/sequential_1/xception_1/block6_sepconv1_1/separable_conv2d/ReadVariableOp", "op": "Const", "attr": {"value": {"tensor": {"dtype": "DT_FLOAT", "tensorShape": {"dim": [{"size": "3"}, {"size": "3"}, {"size": "728"}, {"size": "1"}]}}}, "dtype": {"type": "DT_FLOAT"}}}, {"name": "StatefulPartitionedCall/sequential_1/xception_1/block6_sepconv1_1/separable_conv2d/merged_input", "op": "Const", "attr": {"value": {"tensor": {"dtype": "DT_FLOAT", "tensorShape": {"dim": [{"size": "1"}, {"size": "1"}, {"size": "728"}, {"size": "728"}]}}}, "dtype": {"type": "DT_FLOAT"}}}, {"name": "StatefulPartitionedCall/sequential_1/xception_1/block6_sepconv1_bn_1/batchnorm/sub", "op": "Const", "attr": {"value": {"tensor": {"dtype": "DT_FLOAT", "tensorShape": {"dim": [{"size": "728"}]}}}, "dtype": {"type": "DT_FLOAT"}}}, {"name": "StatefulPartitionedCall/sequential_1/xception_1/block6_sepconv2_1/separable_conv2d/ReadVariableOp", "op": "Const", "attr": {"value": {"tensor": {"dtype": "DT_FLOAT", "tensorShape": {"dim": [{"size": "3"}, {"size": "3"}, {"size": "728"}, {"size": "1"}]}}}, "dtype": {"type": "DT_FLOAT"}}}, {"name": "StatefulPartitionedCall/sequential_1/xception_1/block6_sepconv2_1/separable_conv2d/merged_input", "op": "Const", "attr": {"value": {"tensor": {"dtype": "DT_FLOAT", "tensorShape": {"dim": [{"size": "1"}, {"size": "1"}, {"size": "728"}, {"size": "728"}]}}}, "dtype": {"type": "DT_FLOAT"}}}, {"name": "StatefulPartitionedCall/sequential_1/xception_1/block6_sepconv2_bn_1/batchnorm/sub", "op": "Const", "attr": {"value": {"tensor": {"dtype": "DT_FLOAT", "tensorShape": {"dim": [{"size": "728"}]}}}, "dtype": {"type": "DT_FLOAT"}}}, {"name": "StatefulPartitionedCall/sequential_1/xception_1/block6_sepconv3_1/separable_conv2d/ReadVariableOp", "op": "Const", "attr": {"value": {"tensor": {"dtype": "DT_FLOAT", "tensorShape": {"dim": [{"size": "3"}, {"size": "3"}, {"size": "728"}, {"size": "1"}]}}}, "dtype": {"type": "DT_FLOAT"}}}, {"name": "StatefulPartitionedCall/sequential_1/xception_1/block6_sepconv3_1/separable_conv2d/merged_input", "op": "Const", "attr": {"value": {"tensor": {"dtype": "DT_FLOAT", "tensorShape": {"dim": [{"size": "1"}, {"size": "1"}, {"size": "728"}, {"size": "728"}]}}}, "dtype": {"type": "DT_FLOAT"}}}, {"name": "StatefulPartitionedCall/sequential_1/xception_1/block6_sepconv3_bn_1/batchnorm/sub", "op": "Const", "attr": {"value": {"tensor": {"dtype": "DT_FLOAT", "tensorShape": {"dim": [{"size": "728"}]}}}, "dtype": {"type": "DT_FLOAT"}}}, {"name": "StatefulPartitionedCall/sequential_1/xception_1/block5_sepconv1_1/separable_conv2d/ReadVariableOp", "op": "Const", "attr": {"value": {"tensor": {"dtype": "DT_FLOAT", "tensorShape": {"dim": [{"size": "3"}, {"size": "3"}, {"size": "728"}, {"size": "1"}]}}}, "dtype": {"type": "DT_FLOAT"}}}, {"name": "StatefulPartitionedCall/sequential_1/xception_1/block5_sepconv1_1/separable_conv2d/merged_input", "op": "Const", "attr": {"value": {"tensor": {"dtype": "DT_FLOAT", "tensorShape": {"dim": [{"size": "1"}, {"size": "1"}, {"size": "728"}, {"size": "728"}]}}}, "dtype": {"type": "DT_FLOAT"}}}, {"name": "StatefulPartitionedCall/sequential_1/xception_1/block5_sepconv1_bn_1/batchnorm/sub", "op": "Const", "attr": {"value": {"tensor": {"dtype": "DT_FLOAT", "tensorShape": {"dim": [{"size": "728"}]}}}, "dtype": {"type": "DT_FLOAT"}}}, {"name": "StatefulPartitionedCall/sequential_1/xception_1/block5_sepconv2_1/separable_conv2d/ReadVariableOp", "op": "Const", "attr": {"value": {"tensor": {"dtype": "DT_FLOAT", "tensorShape": {"dim": [{"size": "3"}, {"size": "3"}, {"size": "728"}, {"size": "1"}]}}}, "dtype": {"type": "DT_FLOAT"}}}, {"name": "StatefulPartitionedCall/sequential_1/xception_1/block5_sepconv2_1/separable_conv2d/merged_input", "op": "Const", "attr": {"value": {"tensor": {"dtype": "DT_FLOAT", "tensorShape": {"dim": [{"size": "1"}, {"size": "1"}, {"size": "728"}, {"size": "728"}]}}}, "dtype": {"type": "DT_FLOAT"}}}, {"name": "StatefulPartitionedCall/sequential_1/xception_1/block5_sepconv2_bn_1/batchnorm/sub", "op": "Const", "attr": {"value": {"tensor": {"dtype": "DT_FLOAT", "tensorShape": {"dim": [{"size": "728"}]}}}, "dtype": {"type": "DT_FLOAT"}}}, {"name": "StatefulPartitionedCall/sequential_1/xception_1/block5_sepconv3_1/separable_conv2d/ReadVariableOp", "op": "Const", "attr": {"value": {"tensor": {"dtype": "DT_FLOAT", "tensorShape": {"dim": [{"size": "3"}, {"size": "3"}, {"size": "728"}, {"size": "1"}]}}}, "dtype": {"type": "DT_FLOAT"}}}, {"name": "StatefulPartitionedCall/sequential_1/xception_1/block5_sepconv3_1/separable_conv2d/merged_input", "op": "Const", "attr": {"value": {"tensor": {"dtype": "DT_FLOAT", "tensorShape": {"dim": [{"size": "1"}, {"size": "1"}, {"size": "728"}, {"size": "728"}]}}}, "dtype": {"type": "DT_FLOAT"}}}, {"name": "StatefulPartitionedCall/sequential_1/xception_1/block5_sepconv3_bn_1/batchnorm/sub", "op": "Const", "attr": {"value": {"tensor": {"dtype": "DT_FLOAT", "tensorShape": {"dim": [{"size": "728"}]}}}, "dtype": {"type": "DT_FLOAT"}}}, {"name": "StatefulPartitionedCall/sequential_1/xception_1/block4_sepconv1_1/separable_conv2d/ReadVariableOp", "op": "Const", "attr": {"value": {"tensor": {"dtype": "DT_FLOAT", "tensorShape": {"dim": [{"size": "3"}, {"size": "3"}, {"size": "256"}, {"size": "1"}]}}}, "dtype": {"type": "DT_FLOAT"}}}, {"name": "StatefulPartitionedCall/sequential_1/xception_1/block4_sepconv1_1/separable_conv2d/merged_input", "op": "Const", "attr": {"value": {"tensor": {"dtype": "DT_FLOAT", "tensorShape": {"dim": [{"size": "1"}, {"size": "1"}, {"size": "256"}, {"size": "728"}]}}}, "dtype": {"type": "DT_FLOAT"}}}, {"name": "StatefulPartitionedCall/sequential_1/xception_1/block4_sepconv1_bn_1/batchnorm/sub", "op": "Const", "attr": {"value": {"tensor": {"dtype": "DT_FLOAT", "tensorShape": {"dim": [{"size": "728"}]}}}, "dtype": {"type": "DT_FLOAT"}}}, {"name": "StatefulPartitionedCall/sequential_1/xception_1/block4_sepconv2_1/separable_conv2d/ReadVariableOp", "op": "Const", "attr": {"value": {"tensor": {"dtype": "DT_FLOAT", "tensorShape": {"dim": [{"size": "3"}, {"size": "3"}, {"size": "728"}, {"size": "1"}]}}}, "dtype": {"type": "DT_FLOAT"}}}, {"name": "StatefulPartitionedCall/sequential_1/xception_1/block4_sepconv2_1/separable_conv2d/merged_input", "op": "Const", "attr": {"value": {"tensor": {"dtype": "DT_FLOAT", "tensorShape": {"dim": [{"size": "1"}, {"size": "1"}, {"size": "728"}, {"size": "728"}]}}}, "dtype": {"type": "DT_FLOAT"}}}, {"name": "StatefulPartitionedCall/sequential_1/xception_1/block4_sepconv2_bn_1/batchnorm/sub", "op": "Const", "attr": {"value": {"tensor": {"dtype": "DT_FLOAT", "tensorShape": {"dim": [{"size": "728"}]}}}, "dtype": {"type": "DT_FLOAT"}}}, {"name": "StatefulPartitionedCall/sequential_1/xception_1/block3_sepconv1_1/separable_conv2d/ReadVariableOp", "op": "Const", "attr": {"value": {"tensor": {"dtype": "DT_FLOAT", "tensorShape": {"dim": [{"size": "3"}, {"size": "3"}, {"size": "128"}, {"size": "1"}]}}}, "dtype": {"type": "DT_FLOAT"}}}, {"name": "StatefulPartitionedCall/sequential_1/xception_1/block3_sepconv1_1/separable_conv2d/merged_input", "op": "Const", "attr": {"value": {"tensor": {"dtype": "DT_FLOAT", "tensorShape": {"dim": [{"size": "1"}, {"size": "1"}, {"size": "128"}, {"size": "256"}]}}}, "dtype": {"type": "DT_FLOAT"}}}, {"name": "StatefulPartitionedCall/sequential_1/xception_1/block3_sepconv1_bn_1/batchnorm/sub", "op": "Const", "attr": {"value": {"tensor": {"dtype": "DT_FLOAT", "tensorShape": {"dim": [{"size": "256"}]}}}, "dtype": {"type": "DT_FLOAT"}}}, {"name": "StatefulPartitionedCall/sequential_1/xception_1/block3_sepconv2_1/separable_conv2d/ReadVariableOp", "op": "Const", "attr": {"value": {"tensor": {"dtype": "DT_FLOAT", "tensorShape": {"dim": [{"size": "3"}, {"size": "3"}, {"size": "256"}, {"size": "1"}]}}}, "dtype": {"type": "DT_FLOAT"}}}, {"name": "StatefulPartitionedCall/sequential_1/xception_1/block3_sepconv2_1/separable_conv2d/merged_input", "op": "Const", "attr": {"value": {"tensor": {"dtype": "DT_FLOAT", "tensorShape": {"dim": [{"size": "1"}, {"size": "1"}, {"size": "256"}, {"size": "256"}]}}}, "dtype": {"type": "DT_FLOAT"}}}, {"name": "StatefulPartitionedCall/sequential_1/xception_1/block3_sepconv2_bn_1/batchnorm/sub", "op": "Const", "attr": {"value": {"tensor": {"dtype": "DT_FLOAT", "tensorShape": {"dim": [{"size": "256"}]}}}, "dtype": {"type": "DT_FLOAT"}}}, {"name": "StatefulPartitionedCall/sequential_1/xception_1/block2_sepconv1_1/separable_conv2d/ReadVariableOp", "op": "Const", "attr": {"value": {"tensor": {"dtype": "DT_FLOAT", "tensorShape": {"dim": [{"size": "3"}, {"size": "3"}, {"size": "64"}, {"size": "1"}]}}}, "dtype": {"type": "DT_FLOAT"}}}, {"name": "StatefulPartitionedCall/sequential_1/xception_1/block2_sepconv1_1/separable_conv2d/merged_input", "op": "Const", "attr": {"value": {"tensor": {"dtype": "DT_FLOAT", "tensorShape": {"dim": [{"size": "1"}, {"size": "1"}, {"size": "64"}, {"size": "128"}]}}}, "dtype": {"type": "DT_FLOAT"}}}, {"name": "StatefulPartitionedCall/sequential_1/xception_1/block2_sepconv1_bn_1/batchnorm/sub", "op": "Const", "attr": {"value": {"tensor": {"dtype": "DT_FLOAT", "tensorShape": {"dim": [{"size": "128"}]}}}, "dtype": {"type": "DT_FLOAT"}}}, {"name": "StatefulPartitionedCall/sequential_1/xception_1/block2_sepconv2_1/separable_conv2d/ReadVariableOp", "op": "Const", "attr": {"value": {"tensor": {"dtype": "DT_FLOAT", "tensorShape": {"dim": [{"size": "3"}, {"size": "3"}, {"size": "128"}, {"size": "1"}]}}}, "dtype": {"type": "DT_FLOAT"}}}, {"name": "StatefulPartitionedCall/sequential_1/xception_1/block2_sepconv2_1/separable_conv2d/merged_input", "op": "Const", "attr": {"value": {"tensor": {"dtype": "DT_FLOAT", "tensorShape": {"dim": [{"size": "1"}, {"size": "1"}, {"size": "128"}, {"size": "128"}]}}}, "dtype": {"type": "DT_FLOAT"}}}, {"name": "StatefulPartitionedCall/sequential_1/xception_1/block2_sepconv2_bn_1/batchnorm/sub", "op": "Const", "attr": {"value": {"tensor": {"dtype": "DT_FLOAT", "tensorShape": {"dim": [{"size": "128"}]}}}, "dtype": {"type": "DT_FLOAT"}}}, {"name": "StatefulPartitionedCall/sequential_1/xception_1/block1_conv1_1/convolution/merged_input", "op": "Const", "attr": {"value": {"tensor": {"dtype": "DT_FLOAT", "tensorShape": {"dim": [{"size": "3"}, {"size": "3"}, {"size": "3"}, {"size": "32"}]}}}, "dtype": {"type": "DT_FLOAT"}}}, {"name": "StatefulPartitionedCall/sequential_1/xception_1/block1_conv1_bn_1/batchnorm/sub", "op": "Const", "attr": {"value": {"tensor": {"dtype": "DT_FLOAT", "tensorShape": {"dim": [{"size": "32"}]}}}, "dtype": {"type": "DT_FLOAT"}}}, {"name": "StatefulPartitionedCall/sequential_1/xception_1/block1_conv2_1/convolution/merged_input", "op": "Const", "attr": {"value": {"tensor": {"dtype": "DT_FLOAT", "tensorShape": {"dim": [{"size": "3"}, {"size": "3"}, {"size": "32"}, {"size": "64"}]}}}, "dtype": {"type": "DT_FLOAT"}}}, {"name": "StatefulPartitionedCall/sequential_1/xception_1/block1_conv2_bn_1/batchnorm/sub", "op": "Const", "attr": {"value": {"tensor": {"dtype": "DT_FLOAT", "tensorShape": {"dim": [{"size": "64"}]}}}, "dtype": {"type": "DT_FLOAT"}}}, {"name": "StatefulPartitionedCall/sequential_1/xception_1/conv2d_1/convolution/merged_input", "op": "Const", "attr": {"value": {"tensor": {"dtype": "DT_FLOAT", "tensorShape": {"dim": [{"size": "1"}, {"size": "1"}, {"size": "64"}, {"size": "128"}]}}}, "dtype": {"type": "DT_FLOAT"}}}, {"name": "StatefulPartitionedCall/sequential_1/xception_1/batch_normalization_1/batchnorm/sub", "op": "Const", "attr": {"value": {"tensor": {"dtype": "DT_FLOAT", "tensorShape": {"dim": [{"size": "128"}]}}}, "dtype": {"type": "DT_FLOAT"}}}, {"name": "StatefulPartitionedCall/sequential_1/xception_1/conv2d_1_2/convolution/merged_input", "op": "Const", "attr": {"value": {"tensor": {"dtype": "DT_FLOAT", "tensorShape": {"dim": [{"size": "1"}, {"size": "1"}, {"size": "128"}, {"size": "256"}]}}}, "dtype": {"type": "DT_FLOAT"}}}, {"name": "StatefulPartitionedCall/sequential_1/xception_1/batch_normalization_1_2/batchnorm/sub", "op": "Const", "attr": {"value": {"tensor": {"dtype": "DT_FLOAT", "tensorShape": {"dim": [{"size": "256"}]}}}, "dtype": {"type": "DT_FLOAT"}}}, {"name": "StatefulPartitionedCall/sequential_1/xception_1/conv2d_2_1/convolution/merged_input", "op": "Const", "attr": {"value": {"tensor": {"dtype": "DT_FLOAT", "tensorShape": {"dim": [{"size": "1"}, {"size": "1"}, {"size": "256"}, {"size": "728"}]}}}, "dtype": {"type": "DT_FLOAT"}}}, {"name": "StatefulPartitionedCall/sequential_1/xception_1/batch_normalization_2_1/batchnorm/sub", "op": "Const", "attr": {"value": {"tensor": {"dtype": "DT_FLOAT", "tensorShape": {"dim": [{"size": "728"}]}}}, "dtype": {"type": "DT_FLOAT"}}}, {"name": "StatefulPartitionedCall/sequential_1/xception_1/conv2d_3_1/convolution/merged_input", "op": "Const", "attr": {"value": {"tensor": {"dtype": "DT_FLOAT", "tensorShape": {"dim": [{"size": "1"}, {"size": "1"}, {"size": "728"}, {"size": "1024"}]}}}, "dtype": {"type": "DT_FLOAT"}}}, {"name": "StatefulPartitionedCall/sequential_1/xception_1/batch_normalization_3_1/batchnorm/sub", "op": "Const", "attr": {"value": {"tensor": {"dtype": "DT_FLOAT", "tensorShape": {"dim": [{"size": "1024"}]}}}, "dtype": {"type": "DT_FLOAT"}}}, {"name": "StatefulPartitionedCall/sequential_1/xception_1/block14_sepconv1_1/separable_conv2d/ReadVariableOp", "op": "Const", "attr": {"value": {"tensor": {"dtype": "DT_FLOAT", "tensorShape": {"dim": [{"size": "3"}, {"size": "3"}, {"size": "1024"}, {"size": "1"}]}}}, "dtype": {"type": "DT_FLOAT"}}}, {"name": "StatefulPartitionedCall/sequential_1/xception_1/block14_sepconv1_1/separable_conv2d/merged_input", "op": "Const", "attr": {"value": {"tensor": {"dtype": "DT_FLOAT", "tensorShape": {"dim": [{"size": "1"}, {"size": "1"}, {"size": "1024"}, {"size": "1536"}]}}}, "dtype": {"type": "DT_FLOAT"}}}, {"name": "StatefulPartitionedCall/sequential_1/xception_1/block14_sepconv1_bn_1/batchnorm/sub", "op": "Const", "attr": {"value": {"tensor": {"dtype": "DT_FLOAT", "tensorShape": {"dim": [{"size": "1536"}]}}}, "dtype": {"type": "DT_FLOAT"}}}, {"name": "StatefulPartitionedCall/sequential_1/xception_1/block14_sepconv2_1/separable_conv2d/ReadVariableOp", "op": "Const", "attr": {"value": {"tensor": {"dtype": "DT_FLOAT", "tensorShape": {"dim": [{"size": "3"}, {"size": "3"}, {"size": "1536"}, {"size": "1"}]}}}, "dtype": {"type": "DT_FLOAT"}}}, {"name": "StatefulPartitionedCall/sequential_1/xception_1/block14_sepconv2_1/separable_conv2d/merged_input", "op": "Const", "attr": {"value": {"tensor": {"dtype": "DT_FLOAT", "tensorShape": {"dim": [{"size": "1"}, {"size": "1"}, {"size": "1536"}, {"size": "2048"}]}}}, "dtype": {"type": "DT_FLOAT"}}}, {"name": "StatefulPartitionedCall/sequential_1/xception_1/block14_sepconv2_bn_1/batchnorm/sub", "op": "Const", "attr": {"value": {"tensor": {"dtype": "DT_FLOAT", "tensorShape": {"dim": [{"size": "2048"}]}}}, "dtype": {"type": "DT_FLOAT"}}}, {"name": "StatefulPartitionedCall/sequential_1/global_average_pooling2d_1/Mean/reduction_indices", "op": "Const", "attr": {"value": {"tensor": {"dtype": "DT_INT32", "tensorShape": {"dim": [{"size": "2"}]}}}, "dtype": {"type": "DT_INT32"}}}, {"name": "StatefulPartitionedCall/sequential_1/dense_1/Cast/ReadVariableOp", "op": "Const", "attr": {"value": {"tensor": {"dtype": "DT_FLOAT", "tensorShape": {"dim": [{"size": "2048"}, {"size": "512"}]}}}, "dtype": {"type": "DT_FLOAT"}}}, {"name": "StatefulPartitionedCall/sequential_1/dense_1/BiasAdd/ReadVariableOp", "op": "Const", "attr": {"value": {"tensor": {"dtype": "DT_FLOAT", "tensorShape": {"dim": [{"size": "512"}]}}}, "dtype": {"type": "DT_FLOAT"}}}, {"name": "StatefulPartitionedCall/sequential_1/batch_normalization_4_1/batchnorm/mul", "op": "Const", "attr": {"value": {"tensor": {"dtype": "DT_FLOAT", "tensorShape": {"dim": [{"size": "512"}]}}}, "dtype": {"type": "DT_FLOAT"}}}, {"name": "StatefulPartitionedCall/sequential_1/batch_normalization_4_1/batchnorm/sub", "op": "Const", "attr": {"value": {"tensor": {"dtype": "DT_FLOAT", "tensorShape": {"dim": [{"size": "512"}]}}}, "dtype": {"type": "DT_FLOAT"}}}, {"name": "StatefulPartitionedCall/sequential_1/dense_1_2/Cast/ReadVariableOp", "op": "Const", "attr": {"value": {"tensor": {"dtype": "DT_FLOAT", "tensorShape": {"dim": [{"size": "512"}, {"size": "128"}]}}}, "dtype": {"type": "DT_FLOAT"}}}, {"name": "StatefulPartitionedCall/sequential_1/dense_1_2/BiasAdd/ReadVariableOp", "op": "Const", "attr": {"value": {"tensor": {"dtype": "DT_FLOAT", "tensorShape": {"dim": [{"size": "128"}]}}}, "dtype": {"type": "DT_FLOAT"}}}, {"name": "StatefulPartitionedCall/sequential_1/batch_normalization_5_1/batchnorm/mul", "op": "Const", "attr": {"value": {"tensor": {"dtype": "DT_FLOAT", "tensorShape": {"dim": [{"size": "128"}]}}}, "dtype": {"type": "DT_FLOAT"}}}, {"name": "StatefulPartitionedCall/sequential_1/batch_normalization_5_1/batchnorm/sub", "op": "Const", "attr": {"value": {"tensor": {"dtype": "DT_FLOAT", "tensorShape": {"dim": [{"size": "128"}]}}}, "dtype": {"type": "DT_FLOAT"}}}, {"name": "StatefulPartitionedCall/sequential_1/dense_2_1/Cast/ReadVariableOp", "op": "Const", "attr": {"value": {"tensor": {"dtype": "DT_FLOAT", "tensorShape": {"dim": [{"size": "128"}, {"size": "7"}]}}}, "dtype": {"type": "DT_FLOAT"}}}, {"name": "StatefulPartitionedCall/sequential_1/dense_2_1/BiasAdd/ReadVariableOp", "op": "Const", "attr": {"value": {"tensor": {"dtype": "DT_FLOAT", "tensorShape": {"dim": [{"size": "7"}]}}}, "dtype": {"type": "DT_FLOAT"}}}, {"name": "keras_tensor_132", "op": "Placeholder", "attr": {"shape": {"shape": {"dim": [{"size": "-1"}, {"size": "224"}, {"size": "224"}, {"size": "3"}]}}, "dtype": {"type": "DT_FLOAT"}}}, {"name": "StatefulPartitionedCall/sequential_1/xception_1/block1_conv1_act_1/Relu", "op": "_FusedConv2D", "input": ["keras_tensor_132", "StatefulPartitionedCall/sequential_1/xception_1/block1_conv1_1/convolution/merged_input", "StatefulPartitionedCall/sequential_1/xception_1/block1_conv1_bn_1/batchnorm/sub"], "device": "/device:CPU:0", "attr": {"num_host_args": {"i": "0"}, "data_format": {"s": "TkhXQw=="}, "filter_format": {"s": "SFdJTw=="}, "fused_ops": {"list": {"s": ["Qmlhc0FkZA==", "UmVsdQ=="]}}, "num_args": {"i": "1"}, "strides": {"list": {"i": ["1", "2", "2", "1"]}}, "TArgs": {"list": {"type": ["DT_FLOAT"]}}, "padding": {"s": "VkFMSUQ="}, "use_cudnn_on_gpu": {"b": true}, "leakyrelu_alpha": {"f": 0.2}, "epsilon": {"f": 0.0}, "T": {"type": "DT_FLOAT"}, "explicit_paddings": {"list": {}}, "dilations": {"list": {"i": ["1", "1", "1", "1"]}}}}, {"name": "StatefulPartitionedCall/sequential_1/xception_1/block1_conv2_act_1/Relu", "op": "_FusedConv2D", "input": ["StatefulPartitionedCall/sequential_1/xception_1/block1_conv1_act_1/Relu", "StatefulPartitionedCall/sequential_1/xception_1/block1_conv2_1/convolution/merged_input", "StatefulPartitionedCall/sequential_1/xception_1/block1_conv2_bn_1/batchnorm/sub"], "device": "/device:CPU:0", "attr": {"num_host_args": {"i": "0"}, "data_format": {"s": "TkhXQw=="}, "filter_format": {"s": "SFdJTw=="}, "fused_ops": {"list": {"s": ["Qmlhc0FkZA==", "UmVsdQ=="]}}, "num_args": {"i": "1"}, "strides": {"list": {"i": ["1", "1", "1", "1"]}}, "TArgs": {"list": {"type": ["DT_FLOAT"]}}, "padding": {"s": "VkFMSUQ="}, "use_cudnn_on_gpu": {"b": true}, "leakyrelu_alpha": {"f": 0.2}, "epsilon": {"f": 0.0}, "T": {"type": "DT_FLOAT"}, "explicit_paddings": {"list": {}}, "dilations": {"list": {"i": ["1", "1", "1", "1"]}}}}, {"name": "StatefulPartitionedCall/sequential_1/xception_1/block2_sepconv1_1/separable_conv2d/depthwise", "op": "DepthwiseConv2dNative", "input": ["StatefulPartitionedCall/sequential_1/xception_1/block1_conv2_act_1/Relu", "StatefulPartitionedCall/sequential_1/xception_1/block2_sepconv1_1/separable_conv2d/ReadVariableOp"], "attr": {"padding": {"s": "U0FNRQ=="}, "data_format": {"s": "TkhXQw=="}, "T": {"type": "DT_FLOAT"}, "explicit_paddings": {"list": {}}, "dilations": {"list": {"i": ["1", "1", "1", "1"]}}, "strides": {"list": {"i": ["1", "1", "1", "1"]}}}}, {"name": "StatefulPartitionedCall/sequential_1/xception_1/batch_normalization_1/batchnorm/add_1", "op": "_FusedConv2D", "input": ["StatefulPartitionedCall/sequential_1/xception_1/block1_conv2_act_1/Relu", "StatefulPartitionedCall/sequential_1/xception_1/conv2d_1/convolution/merged_input", "StatefulPartitionedCall/sequential_1/xception_1/batch_normalization_1/batchnorm/sub"], "device": "/device:CPU:0", "attr": {"num_host_args": {"i": "0"}, "data_format": {"s": "TkhXQw=="}, "filter_format": {"s": "SFdJTw=="}, "fused_ops": {"list": {"s": ["Qmlhc0FkZA=="]}}, "num_args": {"i": "1"}, "strides": {"list": {"i": ["1", "2", "2", "1"]}}, "TArgs": {"list": {"type": ["DT_FLOAT"]}}, "padding": {"s": "U0FNRQ=="}, "use_cudnn_on_gpu": {"b": true}, "leakyrelu_alpha": {"f": 0.2}, "epsilon": {"f": 0.0}, "T": {"type": "DT_FLOAT"}, "explicit_paddings": {"list": {}}, "dilations": {"list": {"i": ["1", "1", "1", "1"]}}}}, {"name": "StatefulPartitionedCall/sequential_1/xception_1/block2_sepconv2_act_1/Relu", "op": "_FusedConv2D", "input": ["StatefulPartitionedCall/sequential_1/xception_1/block2_sepconv1_1/separable_conv2d/depthwise", "StatefulPartitionedCall/sequential_1/xception_1/block2_sepconv1_1/separable_conv2d/merged_input", "StatefulPartitionedCall/sequential_1/xception_1/block2_sepconv1_bn_1/batchnorm/sub"], "device": "/device:CPU:0", "attr": {"num_host_args": {"i": "0"}, "data_format": {"s": "TkhXQw=="}, "filter_format": {"s": "SFdJTw=="}, "fused_ops": {"list": {"s": ["Qmlhc0FkZA==", "UmVsdQ=="]}}, "num_args": {"i": "1"}, "strides": {"list": {"i": ["1", "1", "1", "1"]}}, "TArgs": {"list": {"type": ["DT_FLOAT"]}}, "padding": {"s": "VkFMSUQ="}, "use_cudnn_on_gpu": {"b": true}, "leakyrelu_alpha": {"f": 0.2}, "epsilon": {"f": 0.0}, "T": {"type": "DT_FLOAT"}, "explicit_paddings": {"list": {}}, "dilations": {"list": {"i": ["1", "1", "1", "1"]}}}}, {"name": "StatefulPartitionedCall/sequential_1/xception_1/block2_sepconv2_1/separable_conv2d/depthwise", "op": "DepthwiseConv2dNative", "input": ["StatefulPartitionedCall/sequential_1/xception_1/block2_sepconv2_act_1/Relu", "StatefulPartitionedCall/sequential_1/xception_1/block2_sepconv2_1/separable_conv2d/ReadVariableOp"], "attr": {"padding": {"s": "U0FNRQ=="}, "data_format": {"s": "TkhXQw=="}, "T": {"type": "DT_FLOAT"}, "explicit_paddings": {"list": {}}, "dilations": {"list": {"i": ["1", "1", "1", "1"]}}, "strides": {"list": {"i": ["1", "1", "1", "1"]}}}}, {"name": "StatefulPartitionedCall/sequential_1/xception_1/block2_sepconv2_bn_1/batchnorm/add_1", "op": "_FusedConv2D", "input": ["StatefulPartitionedCall/sequential_1/xception_1/block2_sepconv2_1/separable_conv2d/depthwise", "StatefulPartitionedCall/sequential_1/xception_1/block2_sepconv2_1/separable_conv2d/merged_input", "StatefulPartitionedCall/sequential_1/xception_1/block2_sepconv2_bn_1/batchnorm/sub"], "device": "/device:CPU:0", "attr": {"num_host_args": {"i": "0"}, "data_format": {"s": "TkhXQw=="}, "filter_format": {"s": "SFdJTw=="}, "fused_ops": {"list": {"s": ["Qmlhc0FkZA=="]}}, "num_args": {"i": "1"}, "strides": {"list": {"i": ["1", "1", "1", "1"]}}, "TArgs": {"list": {"type": ["DT_FLOAT"]}}, "padding": {"s": "VkFMSUQ="}, "use_cudnn_on_gpu": {"b": true}, "leakyrelu_alpha": {"f": 0.2}, "epsilon": {"f": 0.0}, "T": {"type": "DT_FLOAT"}, "explicit_paddings": {"list": {}}, "dilations": {"list": {"i": ["1", "1", "1", "1"]}}}}, {"name": "StatefulPartitionedCall/sequential_1/xception_1/block2_pool_1/MaxPool2d", "op": "MaxPool", "input": ["StatefulPartitionedCall/sequential_1/xception_1/block2_sepconv2_bn_1/batchnorm/add_1"], "attr": {"ksize": {"list": {"i": ["1", "3", "3", "1"]}}, "data_format": {"s": "TkhXQw=="}, "T": {"type": "DT_FLOAT"}, "explicit_paddings": {"list": {}}, "padding": {"s": "U0FNRQ=="}, "strides": {"list": {"i": ["1", "2", "2", "1"]}}}}, {"name": "StatefulPartitionedCall/sequential_1/xception_1/add_1/Add", "op": "AddV2", "input": ["StatefulPartitionedCall/sequential_1/xception_1/block2_pool_1/MaxPool2d", "StatefulPartitionedCall/sequential_1/xception_1/batch_normalization_1/batchnorm/add_1"], "attr": {"T": {"type": "DT_FLOAT"}}}, {"name": "StatefulPartitionedCall/sequential_1/xception_1/block3_sepconv1_act_1/Relu", "op": "Relu", "input": ["StatefulPartitionedCall/sequential_1/xception_1/add_1/Add"], "attr": {"T": {"type": "DT_FLOAT"}}}, {"name": "StatefulPartitionedCall/sequential_1/xception_1/batch_normalization_1_2/batchnorm/add_1", "op": "_FusedConv2D", "input": ["StatefulPartitionedCall/sequential_1/xception_1/add_1/Add", "StatefulPartitionedCall/sequential_1/xception_1/conv2d_1_2/convolution/merged_input", "StatefulPartitionedCall/sequential_1/xception_1/batch_normalization_1_2/batchnorm/sub"], "device": "/device:CPU:0", "attr": {"num_host_args": {"i": "0"}, "data_format": {"s": "TkhXQw=="}, "filter_format": {"s": "SFdJTw=="}, "fused_ops": {"list": {"s": ["Qmlhc0FkZA=="]}}, "num_args": {"i": "1"}, "strides": {"list": {"i": ["1", "2", "2", "1"]}}, "TArgs": {"list": {"type": ["DT_FLOAT"]}}, "padding": {"s": "U0FNRQ=="}, "use_cudnn_on_gpu": {"b": true}, "leakyrelu_alpha": {"f": 0.2}, "epsilon": {"f": 0.0}, "T": {"type": "DT_FLOAT"}, "explicit_paddings": {"list": {}}, "dilations": {"list": {"i": ["1", "1", "1", "1"]}}}}, {"name": "StatefulPartitionedCall/sequential_1/xception_1/block3_sepconv1_1/separable_conv2d/depthwise", "op": "DepthwiseConv2dNative", "input": ["StatefulPartitionedCall/sequential_1/xception_1/block3_sepconv1_act_1/Relu", "StatefulPartitionedCall/sequential_1/xception_1/block3_sepconv1_1/separable_conv2d/ReadVariableOp"], "attr": {"padding": {"s": "U0FNRQ=="}, "data_format": {"s": "TkhXQw=="}, "T": {"type": "DT_FLOAT"}, "explicit_paddings": {"list": {}}, "dilations": {"list": {"i": ["1", "1", "1", "1"]}}, "strides": {"list": {"i": ["1", "1", "1", "1"]}}}}, {"name": "StatefulPartitionedCall/sequential_1/xception_1/block3_sepconv2_act_1/Relu", "op": "_FusedConv2D", "input": ["StatefulPartitionedCall/sequential_1/xception_1/block3_sepconv1_1/separable_conv2d/depthwise", "StatefulPartitionedCall/sequential_1/xception_1/block3_sepconv1_1/separable_conv2d/merged_input", "StatefulPartitionedCall/sequential_1/xception_1/block3_sepconv1_bn_1/batchnorm/sub"], "device": "/device:CPU:0", "attr": {"num_host_args": {"i": "0"}, "data_format": {"s": "TkhXQw=="}, "filter_format": {"s": "SFdJTw=="}, "fused_ops": {"list": {"s": ["Qmlhc0FkZA==", "UmVsdQ=="]}}, "num_args": {"i": "1"}, "strides": {"list": {"i": ["1", "1", "1", "1"]}}, "TArgs": {"list": {"type": ["DT_FLOAT"]}}, "padding": {"s": "VkFMSUQ="}, "use_cudnn_on_gpu": {"b": true}, "leakyrelu_alpha": {"f": 0.2}, "epsilon": {"f": 0.0}, "T": {"type": "DT_FLOAT"}, "explicit_paddings": {"list": {}}, "dilations": {"list": {"i": ["1", "1", "1", "1"]}}}}, {"name": "StatefulPartitionedCall/sequential_1/xception_1/block3_sepconv2_1/separable_conv2d/depthwise", "op": "DepthwiseConv2dNative", "input": ["StatefulPartitionedCall/sequential_1/xception_1/block3_sepconv2_act_1/Relu", "StatefulPartitionedCall/sequential_1/xception_1/block3_sepconv2_1/separable_conv2d/ReadVariableOp"], "attr": {"padding": {"s": "U0FNRQ=="}, "data_format": {"s": "TkhXQw=="}, "T": {"type": "DT_FLOAT"}, "explicit_paddings": {"list": {}}, "dilations": {"list": {"i": ["1", "1", "1", "1"]}}, "strides": {"list": {"i": ["1", "1", "1", "1"]}}}}, {"name": "StatefulPartitionedCall/sequential_1/xception_1/block3_sepconv2_bn_1/batchnorm/add_1", "op": "_FusedConv2D", "input": ["StatefulPartitionedCall/sequential_1/xception_1/block3_sepconv2_1/separable_conv2d/depthwise", "StatefulPartitionedCall/sequential_1/xception_1/block3_sepconv2_1/separable_conv2d/merged_input", "StatefulPartitionedCall/sequential_1/xception_1/block3_sepconv2_bn_1/batchnorm/sub"], "device": "/device:CPU:0", "attr": {"num_host_args": {"i": "0"}, "data_format": {"s": "TkhXQw=="}, "filter_format": {"s": "SFdJTw=="}, "strides": {"list": {"i": ["1", "1", "1", "1"]}}, "num_args": {"i": "1"}, "fused_ops": {"list": {"s": ["Qmlhc0FkZA=="]}}, "TArgs": {"list": {"type": ["DT_FLOAT"]}}, "padding": {"s": "VkFMSUQ="}, "use_cudnn_on_gpu": {"b": true}, "leakyrelu_alpha": {"f": 0.2}, "epsilon": {"f": 0.0}, "T": {"type": "DT_FLOAT"}, "explicit_paddings": {"list": {}}, "dilations": {"list": {"i": ["1", "1", "1", "1"]}}}}, {"name": "StatefulPartitionedCall/sequential_1/xception_1/block3_pool_1/MaxPool2d", "op": "MaxPool", "input": ["StatefulPartitionedCall/sequential_1/xception_1/block3_sepconv2_bn_1/batchnorm/add_1"], "attr": {"padding": {"s": "U0FNRQ=="}, "data_format": {"s": "TkhXQw=="}, "T": {"type": "DT_FLOAT"}, "explicit_paddings": {"list": {}}, "ksize": {"list": {"i": ["1", "3", "3", "1"]}}, "strides": {"list": {"i": ["1", "2", "2", "1"]}}}}, {"name": "StatefulPartitionedCall/sequential_1/xception_1/add_1_2/Add", "op": "AddV2", "input": ["StatefulPartitionedCall/sequential_1/xception_1/block3_pool_1/MaxPool2d", "StatefulPartitionedCall/sequential_1/xception_1/batch_normalization_1_2/batchnorm/add_1"], "attr": {"T": {"type": "DT_FLOAT"}}}, {"name": "StatefulPartitionedCall/sequential_1/xception_1/block4_sepconv1_act_1/Relu", "op": "Relu", "input": ["StatefulPartitionedCall/sequential_1/xception_1/add_1_2/Add"], "attr": {"T": {"type": "DT_FLOAT"}}}, {"name": "StatefulPartitionedCall/sequential_1/xception_1/batch_normalization_2_1/batchnorm/add_1", "op": "_FusedConv2D", "input": ["StatefulPartitionedCall/sequential_1/xception_1/add_1_2/Add", "StatefulPartitionedCall/sequential_1/xception_1/conv2d_2_1/convolution/merged_input", "StatefulPartitionedCall/sequential_1/xception_1/batch_normalization_2_1/batchnorm/sub"], "device": "/device:CPU:0", "attr": {"num_host_args": {"i": "0"}, "data_format": {"s": "TkhXQw=="}, "filter_format": {"s": "SFdJTw=="}, "fused_ops": {"list": {"s": ["Qmlhc0FkZA=="]}}, "num_args": {"i": "1"}, "strides": {"list": {"i": ["1", "2", "2", "1"]}}, "TArgs": {"list": {"type": ["DT_FLOAT"]}}, "padding": {"s": "U0FNRQ=="}, "use_cudnn_on_gpu": {"b": true}, "leakyrelu_alpha": {"f": 0.2}, "epsilon": {"f": 0.0}, "T": {"type": "DT_FLOAT"}, "explicit_paddings": {"list": {}}, "dilations": {"list": {"i": ["1", "1", "1", "1"]}}}}, {"name": "StatefulPartitionedCall/sequential_1/xception_1/block4_sepconv1_1/separable_conv2d/depthwise", "op": "DepthwiseConv2dNative", "input": ["StatefulPartitionedCall/sequential_1/xception_1/block4_sepconv1_act_1/Relu", "StatefulPartitionedCall/sequential_1/xception_1/block4_sepconv1_1/separable_conv2d/ReadVariableOp"], "attr": {"padding": {"s": "U0FNRQ=="}, "data_format": {"s": "TkhXQw=="}, "T": {"type": "DT_FLOAT"}, "explicit_paddings": {"list": {}}, "dilations": {"list": {"i": ["1", "1", "1", "1"]}}, "strides": {"list": {"i": ["1", "1", "1", "1"]}}}}, {"name": "StatefulPartitionedCall/sequential_1/xception_1/block4_sepconv2_act_1/Relu", "op": "_FusedConv2D", "input": ["StatefulPartitionedCall/sequential_1/xception_1/block4_sepconv1_1/separable_conv2d/depthwise", "StatefulPartitionedCall/sequential_1/xception_1/block4_sepconv1_1/separable_conv2d/merged_input", "StatefulPartitionedCall/sequential_1/xception_1/block4_sepconv1_bn_1/batchnorm/sub"], "device": "/device:CPU:0", "attr": {"num_host_args": {"i": "0"}, "data_format": {"s": "TkhXQw=="}, "filter_format": {"s": "SFdJTw=="}, "strides": {"list": {"i": ["1", "1", "1", "1"]}}, "num_args": {"i": "1"}, "fused_ops": {"list": {"s": ["Qmlhc0FkZA==", "UmVsdQ=="]}}, "TArgs": {"list": {"type": ["DT_FLOAT"]}}, "padding": {"s": "VkFMSUQ="}, "use_cudnn_on_gpu": {"b": true}, "leakyrelu_alpha": {"f": 0.2}, "epsilon": {"f": 0.0}, "T": {"type": "DT_FLOAT"}, "explicit_paddings": {"list": {}}, "dilations": {"list": {"i": ["1", "1", "1", "1"]}}}}, {"name": "StatefulPartitionedCall/sequential_1/xception_1/block4_sepconv2_1/separable_conv2d/depthwise", "op": "DepthwiseConv2dNative", "input": ["StatefulPartitionedCall/sequential_1/xception_1/block4_sepconv2_act_1/Relu", "StatefulPartitionedCall/sequential_1/xception_1/block4_sepconv2_1/separable_conv2d/ReadVariableOp"], "attr": {"padding": {"s": "U0FNRQ=="}, "data_format": {"s": "TkhXQw=="}, "T": {"type": "DT_FLOAT"}, "explicit_paddings": {"list": {}}, "dilations": {"list": {"i": ["1", "1", "1", "1"]}}, "strides": {"list": {"i": ["1", "1", "1", "1"]}}}}, {"name": "StatefulPartitionedCall/sequential_1/xception_1/block4_sepconv2_bn_1/batchnorm/add_1", "op": "_FusedConv2D", "input": ["StatefulPartitionedCall/sequential_1/xception_1/block4_sepconv2_1/separable_conv2d/depthwise", "StatefulPartitionedCall/sequential_1/xception_1/block4_sepconv2_1/separable_conv2d/merged_input", "StatefulPartitionedCall/sequential_1/xception_1/block4_sepconv2_bn_1/batchnorm/sub"], "device": "/device:CPU:0", "attr": {"num_host_args": {"i": "0"}, "data_format": {"s": "TkhXQw=="}, "filter_format": {"s": "SFdJTw=="}, "fused_ops": {"list": {"s": ["Qmlhc0FkZA=="]}}, "num_args": {"i": "1"}, "strides": {"list": {"i": ["1", "1", "1", "1"]}}, "TArgs": {"list": {"type": ["DT_FLOAT"]}}, "padding": {"s": "VkFMSUQ="}, "use_cudnn_on_gpu": {"b": true}, "leakyrelu_alpha": {"f": 0.2}, "epsilon": {"f": 0.0}, "T": {"type": "DT_FLOAT"}, "explicit_paddings": {"list": {}}, "dilations": {"list": {"i": ["1", "1", "1", "1"]}}}}, {"name": "StatefulPartitionedCall/sequential_1/xception_1/block4_pool_1/MaxPool2d", "op": "MaxPool", "input": ["StatefulPartitionedCall/sequential_1/xception_1/block4_sepconv2_bn_1/batchnorm/add_1"], "attr": {"ksize": {"list": {"i": ["1", "3", "3", "1"]}}, "data_format": {"s": "TkhXQw=="}, "T": {"type": "DT_FLOAT"}, "explicit_paddings": {"list": {}}, "padding": {"s": "U0FNRQ=="}, "strides": {"list": {"i": ["1", "2", "2", "1"]}}}}, {"name": "StatefulPartitionedCall/sequential_1/xception_1/add_2_1/Add", "op": "AddV2", "input": ["StatefulPartitionedCall/sequential_1/xception_1/block4_pool_1/MaxPool2d", "StatefulPartitionedCall/sequential_1/xception_1/batch_normalization_2_1/batchnorm/add_1"], "attr": {"T": {"type": "DT_FLOAT"}}}, {"name": "StatefulPartitionedCall/sequential_1/xception_1/block5_sepconv1_act_1/Relu", "op": "Relu", "input": ["StatefulPartitionedCall/sequential_1/xception_1/add_2_1/Add"], "attr": {"T": {"type": "DT_FLOAT"}}}, {"name": "StatefulPartitionedCall/sequential_1/xception_1/block5_sepconv1_1/separable_conv2d/depthwise", "op": "DepthwiseConv2dNative", "input": ["StatefulPartitionedCall/sequential_1/xception_1/block5_sepconv1_act_1/Relu", "StatefulPartitionedCall/sequential_1/xception_1/block5_sepconv1_1/separable_conv2d/ReadVariableOp"], "attr": {"padding": {"s": "U0FNRQ=="}, "data_format": {"s": "TkhXQw=="}, "T": {"type": "DT_FLOAT"}, "explicit_paddings": {"list": {}}, "dilations": {"list": {"i": ["1", "1", "1", "1"]}}, "strides": {"list": {"i": ["1", "1", "1", "1"]}}}}, {"name": "StatefulPartitionedCall/sequential_1/xception_1/block5_sepconv2_act_1/Relu", "op": "_FusedConv2D", "input": ["StatefulPartitionedCall/sequential_1/xception_1/block5_sepconv1_1/separable_conv2d/depthwise", "StatefulPartitionedCall/sequential_1/xception_1/block5_sepconv1_1/separable_conv2d/merged_input", "StatefulPartitionedCall/sequential_1/xception_1/block5_sepconv1_bn_1/batchnorm/sub"], "device": "/device:CPU:0", "attr": {"num_host_args": {"i": "0"}, "data_format": {"s": "TkhXQw=="}, "filter_format": {"s": "SFdJTw=="}, "strides": {"list": {"i": ["1", "1", "1", "1"]}}, "num_args": {"i": "1"}, "fused_ops": {"list": {"s": ["Qmlhc0FkZA==", "UmVsdQ=="]}}, "TArgs": {"list": {"type": ["DT_FLOAT"]}}, "padding": {"s": "VkFMSUQ="}, "use_cudnn_on_gpu": {"b": true}, "leakyrelu_alpha": {"f": 0.2}, "epsilon": {"f": 0.0}, "T": {"type": "DT_FLOAT"}, "explicit_paddings": {"list": {}}, "dilations": {"list": {"i": ["1", "1", "1", "1"]}}}}, {"name": "StatefulPartitionedCall/sequential_1/xception_1/block5_sepconv2_1/separable_conv2d/depthwise", "op": "DepthwiseConv2dNative", "input": ["StatefulPartitionedCall/sequential_1/xception_1/block5_sepconv2_act_1/Relu", "StatefulPartitionedCall/sequential_1/xception_1/block5_sepconv2_1/separable_conv2d/ReadVariableOp"], "attr": {"padding": {"s": "U0FNRQ=="}, "data_format": {"s": "TkhXQw=="}, "T": {"type": "DT_FLOAT"}, "explicit_paddings": {"list": {}}, "dilations": {"list": {"i": ["1", "1", "1", "1"]}}, "strides": {"list": {"i": ["1", "1", "1", "1"]}}}}, {"name": "StatefulPartitionedCall/sequential_1/xception_1/block5_sepconv3_act_1/Relu", "op": "_FusedConv2D", "input": ["StatefulPartitionedCall/sequential_1/xception_1/block5_sepconv2_1/separable_conv2d/depthwise", "StatefulPartitionedCall/sequential_1/xception_1/block5_sepconv2_1/separable_conv2d/merged_input", "StatefulPartitionedCall/sequential_1/xception_1/block5_sepconv2_bn_1/batchnorm/sub"], "device": "/device:CPU:0", "attr": {"num_host_args": {"i": "0"}, "data_format": {"s": "TkhXQw=="}, "filter_format": {"s": "SFdJTw=="}, "fused_ops": {"list": {"s": ["Qmlhc0FkZA==", "UmVsdQ=="]}}, "num_args": {"i": "1"}, "strides": {"list": {"i": ["1", "1", "1", "1"]}}, "TArgs": {"list": {"type": ["DT_FLOAT"]}}, "padding": {"s": "VkFMSUQ="}, "use_cudnn_on_gpu": {"b": true}, "leakyrelu_alpha": {"f": 0.2}, "epsilon": {"f": 0.0}, "T": {"type": "DT_FLOAT"}, "explicit_paddings": {"list": {}}, "dilations": {"list": {"i": ["1", "1", "1", "1"]}}}}, {"name": "StatefulPartitionedCall/sequential_1/xception_1/block5_sepconv3_1/separable_conv2d/depthwise", "op": "DepthwiseConv2dNative", "input": ["StatefulPartitionedCall/sequential_1/xception_1/block5_sepconv3_act_1/Relu", "StatefulPartitionedCall/sequential_1/xception_1/block5_sepconv3_1/separable_conv2d/ReadVariableOp"], "attr": {"padding": {"s": "U0FNRQ=="}, "data_format": {"s": "TkhXQw=="}, "T": {"type": "DT_FLOAT"}, "explicit_paddings": {"list": {}}, "dilations": {"list": {"i": ["1", "1", "1", "1"]}}, "strides": {"list": {"i": ["1", "1", "1", "1"]}}}}, {"name": "StatefulPartitionedCall/sequential_1/xception_1/block5_sepconv3_bn_1/batchnorm/add_1", "op": "_FusedConv2D", "input": ["StatefulPartitionedCall/sequential_1/xception_1/block5_sepconv3_1/separable_conv2d/depthwise", "StatefulPartitionedCall/sequential_1/xception_1/block5_sepconv3_1/separable_conv2d/merged_input", "StatefulPartitionedCall/sequential_1/xception_1/block5_sepconv3_bn_1/batchnorm/sub"], "device": "/device:CPU:0", "attr": {"num_host_args": {"i": "0"}, "data_format": {"s": "TkhXQw=="}, "filter_format": {"s": "SFdJTw=="}, "fused_ops": {"list": {"s": ["Qmlhc0FkZA=="]}}, "num_args": {"i": "1"}, "strides": {"list": {"i": ["1", "1", "1", "1"]}}, "TArgs": {"list": {"type": ["DT_FLOAT"]}}, "padding": {"s": "VkFMSUQ="}, "use_cudnn_on_gpu": {"b": true}, "leakyrelu_alpha": {"f": 0.2}, "epsilon": {"f": 0.0}, "T": {"type": "DT_FLOAT"}, "explicit_paddings": {"list": {}}, "dilations": {"list": {"i": ["1", "1", "1", "1"]}}}}, {"name": "StatefulPartitionedCall/sequential_1/xception_1/add_3_1/Add", "op": "AddV2", "input": ["StatefulPartitionedCall/sequential_1/xception_1/block5_sepconv3_bn_1/batchnorm/add_1", "StatefulPartitionedCall/sequential_1/xception_1/add_2_1/Add"], "attr": {"T": {"type": "DT_FLOAT"}}}, {"name": "StatefulPartitionedCall/sequential_1/xception_1/block6_sepconv1_act_1/Relu", "op": "Relu", "input": ["StatefulPartitionedCall/sequential_1/xception_1/add_3_1/Add"], "attr": {"T": {"type": "DT_FLOAT"}}}, {"name": "StatefulPartitionedCall/sequential_1/xception_1/block6_sepconv1_1/separable_conv2d/depthwise", "op": "DepthwiseConv2dNative", "input": ["StatefulPartitionedCall/sequential_1/xception_1/block6_sepconv1_act_1/Relu", "StatefulPartitionedCall/sequential_1/xception_1/block6_sepconv1_1/separable_conv2d/ReadVariableOp"], "attr": {"padding": {"s": "U0FNRQ=="}, "data_format": {"s": "TkhXQw=="}, "T": {"type": "DT_FLOAT"}, "explicit_paddings": {"list": {}}, "dilations": {"list": {"i": ["1", "1", "1", "1"]}}, "strides": {"list": {"i": ["1", "1", "1", "1"]}}}}, {"name": "StatefulPartitionedCall/sequential_1/xception_1/block6_sepconv2_act_1/Relu", "op": "_FusedConv2D", "input": ["StatefulPartitionedCall/sequential_1/xception_1/block6_sepconv1_1/separable_conv2d/depthwise", "StatefulPartitionedCall/sequential_1/xception_1/block6_sepconv1_1/separable_conv2d/merged_input", "StatefulPartitionedCall/sequential_1/xception_1/block6_sepconv1_bn_1/batchnorm/sub"], "device": "/device:CPU:0", "attr": {"num_host_args": {"i": "0"}, "data_format": {"s": "TkhXQw=="}, "filter_format": {"s": "SFdJTw=="}, "strides": {"list": {"i": ["1", "1", "1", "1"]}}, "num_args": {"i": "1"}, "fused_ops": {"list": {"s": ["Qmlhc0FkZA==", "UmVsdQ=="]}}, "TArgs": {"list": {"type": ["DT_FLOAT"]}}, "padding": {"s": "VkFMSUQ="}, "use_cudnn_on_gpu": {"b": true}, "leakyrelu_alpha": {"f": 0.2}, "epsilon": {"f": 0.0}, "T": {"type": "DT_FLOAT"}, "explicit_paddings": {"list": {}}, "dilations": {"list": {"i": ["1", "1", "1", "1"]}}}}, {"name": "StatefulPartitionedCall/sequential_1/xception_1/block6_sepconv2_1/separable_conv2d/depthwise", "op": "DepthwiseConv2dNative", "input": ["StatefulPartitionedCall/sequential_1/xception_1/block6_sepconv2_act_1/Relu", "StatefulPartitionedCall/sequential_1/xception_1/block6_sepconv2_1/separable_conv2d/ReadVariableOp"], "attr": {"padding": {"s": "U0FNRQ=="}, "data_format": {"s": "TkhXQw=="}, "T": {"type": "DT_FLOAT"}, "explicit_paddings": {"list": {}}, "dilations": {"list": {"i": ["1", "1", "1", "1"]}}, "strides": {"list": {"i": ["1", "1", "1", "1"]}}}}, {"name": "StatefulPartitionedCall/sequential_1/xception_1/block6_sepconv3_act_1/Relu", "op": "_FusedConv2D", "input": ["StatefulPartitionedCall/sequential_1/xception_1/block6_sepconv2_1/separable_conv2d/depthwise", "StatefulPartitionedCall/sequential_1/xception_1/block6_sepconv2_1/separable_conv2d/merged_input", "StatefulPartitionedCall/sequential_1/xception_1/block6_sepconv2_bn_1/batchnorm/sub"], "device": "/device:CPU:0", "attr": {"num_host_args": {"i": "0"}, "data_format": {"s": "TkhXQw=="}, "filter_format": {"s": "SFdJTw=="}, "strides": {"list": {"i": ["1", "1", "1", "1"]}}, "num_args": {"i": "1"}, "fused_ops": {"list": {"s": ["Qmlhc0FkZA==", "UmVsdQ=="]}}, "TArgs": {"list": {"type": ["DT_FLOAT"]}}, "padding": {"s": "VkFMSUQ="}, "use_cudnn_on_gpu": {"b": true}, "leakyrelu_alpha": {"f": 0.2}, "epsilon": {"f": 0.0}, "T": {"type": "DT_FLOAT"}, "explicit_paddings": {"list": {}}, "dilations": {"list": {"i": ["1", "1", "1", "1"]}}}}, {"name": "StatefulPartitionedCall/sequential_1/xception_1/block6_sepconv3_1/separable_conv2d/depthwise", "op": "DepthwiseConv2dNative", "input": ["StatefulPartitionedCall/sequential_1/xception_1/block6_sepconv3_act_1/Relu", "StatefulPartitionedCall/sequential_1/xception_1/block6_sepconv3_1/separable_conv2d/ReadVariableOp"], "attr": {"padding": {"s": "U0FNRQ=="}, "data_format": {"s": "TkhXQw=="}, "T": {"type": "DT_FLOAT"}, "explicit_paddings": {"list": {}}, "dilations": {"list": {"i": ["1", "1", "1", "1"]}}, "strides": {"list": {"i": ["1", "1", "1", "1"]}}}}, {"name": "StatefulPartitionedCall/sequential_1/xception_1/block6_sepconv3_bn_1/batchnorm/add_1", "op": "_FusedConv2D", "input": ["StatefulPartitionedCall/sequential_1/xception_1/block6_sepconv3_1/separable_conv2d/depthwise", "StatefulPartitionedCall/sequential_1/xception_1/block6_sepconv3_1/separable_conv2d/merged_input", "StatefulPartitionedCall/sequential_1/xception_1/block6_sepconv3_bn_1/batchnorm/sub"], "device": "/device:CPU:0", "attr": {"num_host_args": {"i": "0"}, "data_format": {"s": "TkhXQw=="}, "filter_format": {"s": "SFdJTw=="}, "strides": {"list": {"i": ["1", "1", "1", "1"]}}, "num_args": {"i": "1"}, "fused_ops": {"list": {"s": ["Qmlhc0FkZA=="]}}, "TArgs": {"list": {"type": ["DT_FLOAT"]}}, "padding": {"s": "VkFMSUQ="}, "use_cudnn_on_gpu": {"b": true}, "leakyrelu_alpha": {"f": 0.2}, "epsilon": {"f": 0.0}, "T": {"type": "DT_FLOAT"}, "explicit_paddings": {"list": {}}, "dilations": {"list": {"i": ["1", "1", "1", "1"]}}}}, {"name": "StatefulPartitionedCall/sequential_1/xception_1/add_4_1/Add", "op": "AddV2", "input": ["StatefulPartitionedCall/sequential_1/xception_1/block6_sepconv3_bn_1/batchnorm/add_1", "StatefulPartitionedCall/sequential_1/xception_1/add_3_1/Add"], "attr": {"T": {"type": "DT_FLOAT"}}}, {"name": "StatefulPartitionedCall/sequential_1/xception_1/block7_sepconv1_act_1/Relu", "op": "Relu", "input": ["StatefulPartitionedCall/sequential_1/xception_1/add_4_1/Add"], "attr": {"T": {"type": "DT_FLOAT"}}}, {"name": "StatefulPartitionedCall/sequential_1/xception_1/block7_sepconv1_1/separable_conv2d/depthwise", "op": "DepthwiseConv2dNative", "input": ["StatefulPartitionedCall/sequential_1/xception_1/block7_sepconv1_act_1/Relu", "StatefulPartitionedCall/sequential_1/xception_1/block7_sepconv1_1/separable_conv2d/ReadVariableOp"], "attr": {"padding": {"s": "U0FNRQ=="}, "data_format": {"s": "TkhXQw=="}, "T": {"type": "DT_FLOAT"}, "explicit_paddings": {"list": {}}, "dilations": {"list": {"i": ["1", "1", "1", "1"]}}, "strides": {"list": {"i": ["1", "1", "1", "1"]}}}}, {"name": "StatefulPartitionedCall/sequential_1/xception_1/block7_sepconv2_act_1/Relu", "op": "_FusedConv2D", "input": ["StatefulPartitionedCall/sequential_1/xception_1/block7_sepconv1_1/separable_conv2d/depthwise", "StatefulPartitionedCall/sequential_1/xception_1/block7_sepconv1_1/separable_conv2d/merged_input", "StatefulPartitionedCall/sequential_1/xception_1/block7_sepconv1_bn_1/batchnorm/sub"], "device": "/device:CPU:0", "attr": {"num_host_args": {"i": "0"}, "data_format": {"s": "TkhXQw=="}, "filter_format": {"s": "SFdJTw=="}, "fused_ops": {"list": {"s": ["Qmlhc0FkZA==", "UmVsdQ=="]}}, "num_args": {"i": "1"}, "strides": {"list": {"i": ["1", "1", "1", "1"]}}, "TArgs": {"list": {"type": ["DT_FLOAT"]}}, "padding": {"s": "VkFMSUQ="}, "use_cudnn_on_gpu": {"b": true}, "leakyrelu_alpha": {"f": 0.2}, "epsilon": {"f": 0.0}, "T": {"type": "DT_FLOAT"}, "explicit_paddings": {"list": {}}, "dilations": {"list": {"i": ["1", "1", "1", "1"]}}}}, {"name": "StatefulPartitionedCall/sequential_1/xception_1/block7_sepconv2_1/separable_conv2d/depthwise", "op": "DepthwiseConv2dNative", "input": ["StatefulPartitionedCall/sequential_1/xception_1/block7_sepconv2_act_1/Relu", "StatefulPartitionedCall/sequential_1/xception_1/block7_sepconv2_1/separable_conv2d/ReadVariableOp"], "attr": {"padding": {"s": "U0FNRQ=="}, "data_format": {"s": "TkhXQw=="}, "T": {"type": "DT_FLOAT"}, "explicit_paddings": {"list": {}}, "dilations": {"list": {"i": ["1", "1", "1", "1"]}}, "strides": {"list": {"i": ["1", "1", "1", "1"]}}}}, {"name": "StatefulPartitionedCall/sequential_1/xception_1/block7_sepconv3_act_1/Relu", "op": "_FusedConv2D", "input": ["StatefulPartitionedCall/sequential_1/xception_1/block7_sepconv2_1/separable_conv2d/depthwise", "StatefulPartitionedCall/sequential_1/xception_1/block7_sepconv2_1/separable_conv2d/merged_input", "StatefulPartitionedCall/sequential_1/xception_1/block7_sepconv2_bn_1/batchnorm/sub"], "device": "/device:CPU:0", "attr": {"num_host_args": {"i": "0"}, "data_format": {"s": "TkhXQw=="}, "filter_format": {"s": "SFdJTw=="}, "fused_ops": {"list": {"s": ["Qmlhc0FkZA==", "UmVsdQ=="]}}, "num_args": {"i": "1"}, "strides": {"list": {"i": ["1", "1", "1", "1"]}}, "TArgs": {"list": {"type": ["DT_FLOAT"]}}, "padding": {"s": "VkFMSUQ="}, "use_cudnn_on_gpu": {"b": true}, "leakyrelu_alpha": {"f": 0.2}, "epsilon": {"f": 0.0}, "T": {"type": "DT_FLOAT"}, "explicit_paddings": {"list": {}}, "dilations": {"list": {"i": ["1", "1", "1", "1"]}}}}, {"name": "StatefulPartitionedCall/sequential_1/xception_1/block7_sepconv3_1/separable_conv2d/depthwise", "op": "DepthwiseConv2dNative", "input": ["StatefulPartitionedCall/sequential_1/xception_1/block7_sepconv3_act_1/Relu", "StatefulPartitionedCall/sequential_1/xception_1/block7_sepconv3_1/separable_conv2d/ReadVariableOp"], "attr": {"padding": {"s": "U0FNRQ=="}, "data_format": {"s": "TkhXQw=="}, "T": {"type": "DT_FLOAT"}, "explicit_paddings": {"list": {}}, "dilations": {"list": {"i": ["1", "1", "1", "1"]}}, "strides": {"list": {"i": ["1", "1", "1", "1"]}}}}, {"name": "StatefulPartitionedCall/sequential_1/xception_1/block7_sepconv3_bn_1/batchnorm/add_1", "op": "_FusedConv2D", "input": ["StatefulPartitionedCall/sequential_1/xception_1/block7_sepconv3_1/separable_conv2d/depthwise", "StatefulPartitionedCall/sequential_1/xception_1/block7_sepconv3_1/separable_conv2d/merged_input", "StatefulPartitionedCall/sequential_1/xception_1/block7_sepconv3_bn_1/batchnorm/sub"], "device": "/device:CPU:0", "attr": {"num_host_args": {"i": "0"}, "data_format": {"s": "TkhXQw=="}, "filter_format": {"s": "SFdJTw=="}, "fused_ops": {"list": {"s": ["Qmlhc0FkZA=="]}}, "num_args": {"i": "1"}, "strides": {"list": {"i": ["1", "1", "1", "1"]}}, "TArgs": {"list": {"type": ["DT_FLOAT"]}}, "padding": {"s": "VkFMSUQ="}, "use_cudnn_on_gpu": {"b": true}, "leakyrelu_alpha": {"f": 0.2}, "epsilon": {"f": 0.0}, "T": {"type": "DT_FLOAT"}, "explicit_paddings": {"list": {}}, "dilations": {"list": {"i": ["1", "1", "1", "1"]}}}}, {"name": "StatefulPartitionedCall/sequential_1/xception_1/add_5_1/Add", "op": "AddV2", "input": ["StatefulPartitionedCall/sequential_1/xception_1/block7_sepconv3_bn_1/batchnorm/add_1", "StatefulPartitionedCall/sequential_1/xception_1/add_4_1/Add"], "attr": {"T": {"type": "DT_FLOAT"}}}, {"name": "StatefulPartitionedCall/sequential_1/xception_1/block8_sepconv1_act_1/Relu", "op": "Relu", "input": ["StatefulPartitionedCall/sequential_1/xception_1/add_5_1/Add"], "attr": {"T": {"type": "DT_FLOAT"}}}, {"name": "StatefulPartitionedCall/sequential_1/xception_1/block8_sepconv1_1/separable_conv2d/depthwise", "op": "DepthwiseConv2dNative", "input": ["StatefulPartitionedCall/sequential_1/xception_1/block8_sepconv1_act_1/Relu", "StatefulPartitionedCall/sequential_1/xception_1/block8_sepconv1_1/separable_conv2d/ReadVariableOp"], "attr": {"padding": {"s": "U0FNRQ=="}, "data_format": {"s": "TkhXQw=="}, "T": {"type": "DT_FLOAT"}, "explicit_paddings": {"list": {}}, "dilations": {"list": {"i": ["1", "1", "1", "1"]}}, "strides": {"list": {"i": ["1", "1", "1", "1"]}}}}, {"name": "StatefulPartitionedCall/sequential_1/xception_1/block8_sepconv2_act_1/Relu", "op": "_FusedConv2D", "input": ["StatefulPartitionedCall/sequential_1/xception_1/block8_sepconv1_1/separable_conv2d/depthwise", "StatefulPartitionedCall/sequential_1/xception_1/block8_sepconv1_1/separable_conv2d/merged_input", "StatefulPartitionedCall/sequential_1/xception_1/block8_sepconv1_bn_1/batchnorm/sub"], "device": "/device:CPU:0", "attr": {"num_host_args": {"i": "0"}, "data_format": {"s": "TkhXQw=="}, "filter_format": {"s": "SFdJTw=="}, "strides": {"list": {"i": ["1", "1", "1", "1"]}}, "num_args": {"i": "1"}, "fused_ops": {"list": {"s": ["Qmlhc0FkZA==", "UmVsdQ=="]}}, "TArgs": {"list": {"type": ["DT_FLOAT"]}}, "padding": {"s": "VkFMSUQ="}, "use_cudnn_on_gpu": {"b": true}, "leakyrelu_alpha": {"f": 0.2}, "epsilon": {"f": 0.0}, "T": {"type": "DT_FLOAT"}, "explicit_paddings": {"list": {}}, "dilations": {"list": {"i": ["1", "1", "1", "1"]}}}}, {"name": "StatefulPartitionedCall/sequential_1/xception_1/block8_sepconv2_1/separable_conv2d/depthwise", "op": "DepthwiseConv2dNative", "input": ["StatefulPartitionedCall/sequential_1/xception_1/block8_sepconv2_act_1/Relu", "StatefulPartitionedCall/sequential_1/xception_1/block8_sepconv2_1/separable_conv2d/ReadVariableOp"], "attr": {"padding": {"s": "U0FNRQ=="}, "data_format": {"s": "TkhXQw=="}, "T": {"type": "DT_FLOAT"}, "explicit_paddings": {"list": {}}, "dilations": {"list": {"i": ["1", "1", "1", "1"]}}, "strides": {"list": {"i": ["1", "1", "1", "1"]}}}}, {"name": "StatefulPartitionedCall/sequential_1/xception_1/block8_sepconv3_act_1/Relu", "op": "_FusedConv2D", "input": ["StatefulPartitionedCall/sequential_1/xception_1/block8_sepconv2_1/separable_conv2d/depthwise", "StatefulPartitionedCall/sequential_1/xception_1/block8_sepconv2_1/separable_conv2d/merged_input", "StatefulPartitionedCall/sequential_1/xception_1/block8_sepconv2_bn_1/batchnorm/sub"], "device": "/device:CPU:0", "attr": {"num_host_args": {"i": "0"}, "data_format": {"s": "TkhXQw=="}, "filter_format": {"s": "SFdJTw=="}, "strides": {"list": {"i": ["1", "1", "1", "1"]}}, "num_args": {"i": "1"}, "fused_ops": {"list": {"s": ["Qmlhc0FkZA==", "UmVsdQ=="]}}, "TArgs": {"list": {"type": ["DT_FLOAT"]}}, "padding": {"s": "VkFMSUQ="}, "use_cudnn_on_gpu": {"b": true}, "leakyrelu_alpha": {"f": 0.2}, "epsilon": {"f": 0.0}, "T": {"type": "DT_FLOAT"}, "explicit_paddings": {"list": {}}, "dilations": {"list": {"i": ["1", "1", "1", "1"]}}}}, {"name": "StatefulPartitionedCall/sequential_1/xception_1/block8_sepconv3_1/separable_conv2d/depthwise", "op": "DepthwiseConv2dNative", "input": ["StatefulPartitionedCall/sequential_1/xception_1/block8_sepconv3_act_1/Relu", "StatefulPartitionedCall/sequential_1/xception_1/block8_sepconv3_1/separable_conv2d/ReadVariableOp"], "attr": {"padding": {"s": "U0FNRQ=="}, "data_format": {"s": "TkhXQw=="}, "T": {"type": "DT_FLOAT"}, "explicit_paddings": {"list": {}}, "dilations": {"list": {"i": ["1", "1", "1", "1"]}}, "strides": {"list": {"i": ["1", "1", "1", "1"]}}}}, {"name": "StatefulPartitionedCall/sequential_1/xception_1/block8_sepconv3_bn_1/batchnorm/add_1", "op": "_FusedConv2D", "input": ["StatefulPartitionedCall/sequential_1/xception_1/block8_sepconv3_1/separable_conv2d/depthwise", "StatefulPartitionedCall/sequential_1/xception_1/block8_sepconv3_1/separable_conv2d/merged_input", "StatefulPartitionedCall/sequential_1/xception_1/block8_sepconv3_bn_1/batchnorm/sub"], "device": "/device:CPU:0", "attr": {"num_host_args": {"i": "0"}, "data_format": {"s": "TkhXQw=="}, "filter_format": {"s": "SFdJTw=="}, "strides": {"list": {"i": ["1", "1", "1", "1"]}}, "num_args": {"i": "1"}, "fused_ops": {"list": {"s": ["Qmlhc0FkZA=="]}}, "TArgs": {"list": {"type": ["DT_FLOAT"]}}, "padding": {"s": "VkFMSUQ="}, "use_cudnn_on_gpu": {"b": true}, "leakyrelu_alpha": {"f": 0.2}, "epsilon": {"f": 0.0}, "T": {"type": "DT_FLOAT"}, "explicit_paddings": {"list": {}}, "dilations": {"list": {"i": ["1", "1", "1", "1"]}}}}, {"name": "StatefulPartitionedCall/sequential_1/xception_1/add_6_1/Add", "op": "AddV2", "input": ["StatefulPartitionedCall/sequential_1/xception_1/block8_sepconv3_bn_1/batchnorm/add_1", "StatefulPartitionedCall/sequential_1/xception_1/add_5_1/Add"], "attr": {"T": {"type": "DT_FLOAT"}}}, {"name": "StatefulPartitionedCall/sequential_1/xception_1/block9_sepconv1_act_1/Relu", "op": "Relu", "input": ["StatefulPartitionedCall/sequential_1/xception_1/add_6_1/Add"], "attr": {"T": {"type": "DT_FLOAT"}}}, {"name": "StatefulPartitionedCall/sequential_1/xception_1/block9_sepconv1_1/separable_conv2d/depthwise", "op": "DepthwiseConv2dNative", "input": ["StatefulPartitionedCall/sequential_1/xception_1/block9_sepconv1_act_1/Relu", "StatefulPartitionedCall/sequential_1/xception_1/block9_sepconv1_1/separable_conv2d/ReadVariableOp"], "attr": {"padding": {"s": "U0FNRQ=="}, "data_format": {"s": "TkhXQw=="}, "T": {"type": "DT_FLOAT"}, "explicit_paddings": {"list": {}}, "dilations": {"list": {"i": ["1", "1", "1", "1"]}}, "strides": {"list": {"i": ["1", "1", "1", "1"]}}}}, {"name": "StatefulPartitionedCall/sequential_1/xception_1/block9_sepconv2_act_1/Relu", "op": "_FusedConv2D", "input": ["StatefulPartitionedCall/sequential_1/xception_1/block9_sepconv1_1/separable_conv2d/depthwise", "StatefulPartitionedCall/sequential_1/xception_1/block9_sepconv1_1/separable_conv2d/merged_input", "StatefulPartitionedCall/sequential_1/xception_1/block9_sepconv1_bn_1/batchnorm/sub"], "device": "/device:CPU:0", "attr": {"num_host_args": {"i": "0"}, "data_format": {"s": "TkhXQw=="}, "filter_format": {"s": "SFdJTw=="}, "fused_ops": {"list": {"s": ["Qmlhc0FkZA==", "UmVsdQ=="]}}, "num_args": {"i": "1"}, "strides": {"list": {"i": ["1", "1", "1", "1"]}}, "TArgs": {"list": {"type": ["DT_FLOAT"]}}, "padding": {"s": "VkFMSUQ="}, "use_cudnn_on_gpu": {"b": true}, "leakyrelu_alpha": {"f": 0.2}, "epsilon": {"f": 0.0}, "T": {"type": "DT_FLOAT"}, "explicit_paddings": {"list": {}}, "dilations": {"list": {"i": ["1", "1", "1", "1"]}}}}, {"name": "StatefulPartitionedCall/sequential_1/xception_1/block9_sepconv2_1/separable_conv2d/depthwise", "op": "DepthwiseConv2dNative", "input": ["StatefulPartitionedCall/sequential_1/xception_1/block9_sepconv2_act_1/Relu", "StatefulPartitionedCall/sequential_1/xception_1/block9_sepconv2_1/separable_conv2d/ReadVariableOp"], "attr": {"padding": {"s": "U0FNRQ=="}, "data_format": {"s": "TkhXQw=="}, "T": {"type": "DT_FLOAT"}, "explicit_paddings": {"list": {}}, "dilations": {"list": {"i": ["1", "1", "1", "1"]}}, "strides": {"list": {"i": ["1", "1", "1", "1"]}}}}, {"name": "StatefulPartitionedCall/sequential_1/xception_1/block9_sepconv3_act_1/Relu", "op": "_FusedConv2D", "input": ["StatefulPartitionedCall/sequential_1/xception_1/block9_sepconv2_1/separable_conv2d/depthwise", "StatefulPartitionedCall/sequential_1/xception_1/block9_sepconv2_1/separable_conv2d/merged_input", "StatefulPartitionedCall/sequential_1/xception_1/block9_sepconv2_bn_1/batchnorm/sub"], "device": "/device:CPU:0", "attr": {"num_host_args": {"i": "0"}, "data_format": {"s": "TkhXQw=="}, "filter_format": {"s": "SFdJTw=="}, "strides": {"list": {"i": ["1", "1", "1", "1"]}}, "num_args": {"i": "1"}, "fused_ops": {"list": {"s": ["Qmlhc0FkZA==", "UmVsdQ=="]}}, "TArgs": {"list": {"type": ["DT_FLOAT"]}}, "padding": {"s": "VkFMSUQ="}, "use_cudnn_on_gpu": {"b": true}, "leakyrelu_alpha": {"f": 0.2}, "epsilon": {"f": 0.0}, "T": {"type": "DT_FLOAT"}, "explicit_paddings": {"list": {}}, "dilations": {"list": {"i": ["1", "1", "1", "1"]}}}}, {"name": "StatefulPartitionedCall/sequential_1/xception_1/block9_sepconv3_1/separable_conv2d/depthwise", "op": "DepthwiseConv2dNative", "input": ["StatefulPartitionedCall/sequential_1/xception_1/block9_sepconv3_act_1/Relu", "StatefulPartitionedCall/sequential_1/xception_1/block9_sepconv3_1/separable_conv2d/ReadVariableOp"], "attr": {"padding": {"s": "U0FNRQ=="}, "data_format": {"s": "TkhXQw=="}, "T": {"type": "DT_FLOAT"}, "explicit_paddings": {"list": {}}, "dilations": {"list": {"i": ["1", "1", "1", "1"]}}, "strides": {"list": {"i": ["1", "1", "1", "1"]}}}}, {"name": "StatefulPartitionedCall/sequential_1/xception_1/block9_sepconv3_bn_1/batchnorm/add_1", "op": "_FusedConv2D", "input": ["StatefulPartitionedCall/sequential_1/xception_1/block9_sepconv3_1/separable_conv2d/depthwise", "StatefulPartitionedCall/sequential_1/xception_1/block9_sepconv3_1/separable_conv2d/merged_input", "StatefulPartitionedCall/sequential_1/xception_1/block9_sepconv3_bn_1/batchnorm/sub"], "device": "/device:CPU:0", "attr": {"num_host_args": {"i": "0"}, "data_format": {"s": "TkhXQw=="}, "filter_format": {"s": "SFdJTw=="}, "strides": {"list": {"i": ["1", "1", "1", "1"]}}, "num_args": {"i": "1"}, "fused_ops": {"list": {"s": ["Qmlhc0FkZA=="]}}, "TArgs": {"list": {"type": ["DT_FLOAT"]}}, "padding": {"s": "VkFMSUQ="}, "use_cudnn_on_gpu": {"b": true}, "leakyrelu_alpha": {"f": 0.2}, "epsilon": {"f": 0.0}, "T": {"type": "DT_FLOAT"}, "explicit_paddings": {"list": {}}, "dilations": {"list": {"i": ["1", "1", "1", "1"]}}}}, {"name": "StatefulPartitionedCall/sequential_1/xception_1/add_7_1/Add", "op": "AddV2", "input": ["StatefulPartitionedCall/sequential_1/xception_1/block9_sepconv3_bn_1/batchnorm/add_1", "StatefulPartitionedCall/sequential_1/xception_1/add_6_1/Add"], "attr": {"T": {"type": "DT_FLOAT"}}}, {"name": "StatefulPartitionedCall/sequential_1/xception_1/block10_sepconv1_act_1/Relu", "op": "Relu", "input": ["StatefulPartitionedCall/sequential_1/xception_1/add_7_1/Add"], "attr": {"T": {"type": "DT_FLOAT"}}}, {"name": "StatefulPartitionedCall/sequential_1/xception_1/block10_sepconv1_1/separable_conv2d/depthwise", "op": "DepthwiseConv2dNative", "input": ["StatefulPartitionedCall/sequential_1/xception_1/block10_sepconv1_act_1/Relu", "StatefulPartitionedCall/sequential_1/xception_1/block10_sepconv1_1/separable_conv2d/ReadVariableOp"], "attr": {"padding": {"s": "U0FNRQ=="}, "data_format": {"s": "TkhXQw=="}, "T": {"type": "DT_FLOAT"}, "explicit_paddings": {"list": {}}, "dilations": {"list": {"i": ["1", "1", "1", "1"]}}, "strides": {"list": {"i": ["1", "1", "1", "1"]}}}}, {"name": "StatefulPartitionedCall/sequential_1/xception_1/block10_sepconv2_act_1/Relu", "op": "_FusedConv2D", "input": ["StatefulPartitionedCall/sequential_1/xception_1/block10_sepconv1_1/separable_conv2d/depthwise", "StatefulPartitionedCall/sequential_1/xception_1/block10_sepconv1_1/separable_conv2d/merged_input", "StatefulPartitionedCall/sequential_1/xception_1/block10_sepconv1_bn_1/batchnorm/sub"], "device": "/device:CPU:0", "attr": {"num_host_args": {"i": "0"}, "data_format": {"s": "TkhXQw=="}, "filter_format": {"s": "SFdJTw=="}, "strides": {"list": {"i": ["1", "1", "1", "1"]}}, "num_args": {"i": "1"}, "fused_ops": {"list": {"s": ["Qmlhc0FkZA==", "UmVsdQ=="]}}, "TArgs": {"list": {"type": ["DT_FLOAT"]}}, "padding": {"s": "VkFMSUQ="}, "use_cudnn_on_gpu": {"b": true}, "leakyrelu_alpha": {"f": 0.2}, "epsilon": {"f": 0.0}, "T": {"type": "DT_FLOAT"}, "explicit_paddings": {"list": {}}, "dilations": {"list": {"i": ["1", "1", "1", "1"]}}}}, {"name": "StatefulPartitionedCall/sequential_1/xception_1/block10_sepconv2_1/separable_conv2d/depthwise", "op": "DepthwiseConv2dNative", "input": ["StatefulPartitionedCall/sequential_1/xception_1/block10_sepconv2_act_1/Relu", "StatefulPartitionedCall/sequential_1/xception_1/block10_sepconv2_1/separable_conv2d/ReadVariableOp"], "attr": {"padding": {"s": "U0FNRQ=="}, "data_format": {"s": "TkhXQw=="}, "T": {"type": "DT_FLOAT"}, "explicit_paddings": {"list": {}}, "dilations": {"list": {"i": ["1", "1", "1", "1"]}}, "strides": {"list": {"i": ["1", "1", "1", "1"]}}}}, {"name": "StatefulPartitionedCall/sequential_1/xception_1/block10_sepconv3_act_1/Relu", "op": "_FusedConv2D", "input": ["StatefulPartitionedCall/sequential_1/xception_1/block10_sepconv2_1/separable_conv2d/depthwise", "StatefulPartitionedCall/sequential_1/xception_1/block10_sepconv2_1/separable_conv2d/merged_input", "StatefulPartitionedCall/sequential_1/xception_1/block10_sepconv2_bn_1/batchnorm/sub"], "device": "/device:CPU:0", "attr": {"num_host_args": {"i": "0"}, "data_format": {"s": "TkhXQw=="}, "filter_format": {"s": "SFdJTw=="}, "strides": {"list": {"i": ["1", "1", "1", "1"]}}, "num_args": {"i": "1"}, "fused_ops": {"list": {"s": ["Qmlhc0FkZA==", "UmVsdQ=="]}}, "TArgs": {"list": {"type": ["DT_FLOAT"]}}, "padding": {"s": "VkFMSUQ="}, "use_cudnn_on_gpu": {"b": true}, "leakyrelu_alpha": {"f": 0.2}, "epsilon": {"f": 0.0}, "T": {"type": "DT_FLOAT"}, "explicit_paddings": {"list": {}}, "dilations": {"list": {"i": ["1", "1", "1", "1"]}}}}, {"name": "StatefulPartitionedCall/sequential_1/xception_1/block10_sepconv3_1/separable_conv2d/depthwise", "op": "DepthwiseConv2dNative", "input": ["StatefulPartitionedCall/sequential_1/xception_1/block10_sepconv3_act_1/Relu", "StatefulPartitionedCall/sequential_1/xception_1/block10_sepconv3_1/separable_conv2d/ReadVariableOp"], "attr": {"padding": {"s": "U0FNRQ=="}, "data_format": {"s": "TkhXQw=="}, "T": {"type": "DT_FLOAT"}, "explicit_paddings": {"list": {}}, "dilations": {"list": {"i": ["1", "1", "1", "1"]}}, "strides": {"list": {"i": ["1", "1", "1", "1"]}}}}, {"name": "StatefulPartitionedCall/sequential_1/xception_1/block10_sepconv3_bn_1/batchnorm/add_1", "op": "_FusedConv2D", "input": ["StatefulPartitionedCall/sequential_1/xception_1/block10_sepconv3_1/separable_conv2d/depthwise", "StatefulPartitionedCall/sequential_1/xception_1/block10_sepconv3_1/separable_conv2d/merged_input", "StatefulPartitionedCall/sequential_1/xception_1/block10_sepconv3_bn_1/batchnorm/sub"], "device": "/device:CPU:0", "attr": {"num_host_args": {"i": "0"}, "data_format": {"s": "TkhXQw=="}, "filter_format": {"s": "SFdJTw=="}, "strides": {"list": {"i": ["1", "1", "1", "1"]}}, "num_args": {"i": "1"}, "fused_ops": {"list": {"s": ["Qmlhc0FkZA=="]}}, "TArgs": {"list": {"type": ["DT_FLOAT"]}}, "padding": {"s": "VkFMSUQ="}, "use_cudnn_on_gpu": {"b": true}, "leakyrelu_alpha": {"f": 0.2}, "epsilon": {"f": 0.0}, "T": {"type": "DT_FLOAT"}, "explicit_paddings": {"list": {}}, "dilations": {"list": {"i": ["1", "1", "1", "1"]}}}}, {"name": "StatefulPartitionedCall/sequential_1/xception_1/add_8_1/Add", "op": "AddV2", "input": ["StatefulPartitionedCall/sequential_1/xception_1/block10_sepconv3_bn_1/batchnorm/add_1", "StatefulPartitionedCall/sequential_1/xception_1/add_7_1/Add"], "attr": {"T": {"type": "DT_FLOAT"}}}, {"name": "StatefulPartitionedCall/sequential_1/xception_1/block11_sepconv1_act_1/Relu", "op": "Relu", "input": ["StatefulPartitionedCall/sequential_1/xception_1/add_8_1/Add"], "attr": {"T": {"type": "DT_FLOAT"}}}, {"name": "StatefulPartitionedCall/sequential_1/xception_1/block11_sepconv1_1/separable_conv2d/depthwise", "op": "DepthwiseConv2dNative", "input": ["StatefulPartitionedCall/sequential_1/xception_1/block11_sepconv1_act_1/Relu", "StatefulPartitionedCall/sequential_1/xception_1/block11_sepconv1_1/separable_conv2d/ReadVariableOp"], "attr": {"padding": {"s": "U0FNRQ=="}, "data_format": {"s": "TkhXQw=="}, "T": {"type": "DT_FLOAT"}, "explicit_paddings": {"list": {}}, "dilations": {"list": {"i": ["1", "1", "1", "1"]}}, "strides": {"list": {"i": ["1", "1", "1", "1"]}}}}, {"name": "StatefulPartitionedCall/sequential_1/xception_1/block11_sepconv2_act_1/Relu", "op": "_FusedConv2D", "input": ["StatefulPartitionedCall/sequential_1/xception_1/block11_sepconv1_1/separable_conv2d/depthwise", "StatefulPartitionedCall/sequential_1/xception_1/block11_sepconv1_1/separable_conv2d/merged_input", "StatefulPartitionedCall/sequential_1/xception_1/block11_sepconv1_bn_1/batchnorm/sub"], "device": "/device:CPU:0", "attr": {"num_host_args": {"i": "0"}, "data_format": {"s": "TkhXQw=="}, "filter_format": {"s": "SFdJTw=="}, "fused_ops": {"list": {"s": ["Qmlhc0FkZA==", "UmVsdQ=="]}}, "num_args": {"i": "1"}, "strides": {"list": {"i": ["1", "1", "1", "1"]}}, "TArgs": {"list": {"type": ["DT_FLOAT"]}}, "padding": {"s": "VkFMSUQ="}, "use_cudnn_on_gpu": {"b": true}, "leakyrelu_alpha": {"f": 0.2}, "epsilon": {"f": 0.0}, "T": {"type": "DT_FLOAT"}, "explicit_paddings": {"list": {}}, "dilations": {"list": {"i": ["1", "1", "1", "1"]}}}}, {"name": "StatefulPartitionedCall/sequential_1/xception_1/block11_sepconv2_1/separable_conv2d/depthwise", "op": "DepthwiseConv2dNative", "input": ["StatefulPartitionedCall/sequential_1/xception_1/block11_sepconv2_act_1/Relu", "StatefulPartitionedCall/sequential_1/xception_1/block11_sepconv2_1/separable_conv2d/ReadVariableOp"], "attr": {"padding": {"s": "U0FNRQ=="}, "data_format": {"s": "TkhXQw=="}, "T": {"type": "DT_FLOAT"}, "explicit_paddings": {"list": {}}, "dilations": {"list": {"i": ["1", "1", "1", "1"]}}, "strides": {"list": {"i": ["1", "1", "1", "1"]}}}}, {"name": "StatefulPartitionedCall/sequential_1/xception_1/block11_sepconv3_act_1/Relu", "op": "_FusedConv2D", "input": ["StatefulPartitionedCall/sequential_1/xception_1/block11_sepconv2_1/separable_conv2d/depthwise", "StatefulPartitionedCall/sequential_1/xception_1/block11_sepconv2_1/separable_conv2d/merged_input", "StatefulPartitionedCall/sequential_1/xception_1/block11_sepconv2_bn_1/batchnorm/sub"], "device": "/device:CPU:0", "attr": {"num_host_args": {"i": "0"}, "data_format": {"s": "TkhXQw=="}, "filter_format": {"s": "SFdJTw=="}, "strides": {"list": {"i": ["1", "1", "1", "1"]}}, "num_args": {"i": "1"}, "fused_ops": {"list": {"s": ["Qmlhc0FkZA==", "UmVsdQ=="]}}, "TArgs": {"list": {"type": ["DT_FLOAT"]}}, "padding": {"s": "VkFMSUQ="}, "use_cudnn_on_gpu": {"b": true}, "leakyrelu_alpha": {"f": 0.2}, "epsilon": {"f": 0.0}, "T": {"type": "DT_FLOAT"}, "explicit_paddings": {"list": {}}, "dilations": {"list": {"i": ["1", "1", "1", "1"]}}}}, {"name": "StatefulPartitionedCall/sequential_1/xception_1/block11_sepconv3_1/separable_conv2d/depthwise", "op": "DepthwiseConv2dNative", "input": ["StatefulPartitionedCall/sequential_1/xception_1/block11_sepconv3_act_1/Relu", "StatefulPartitionedCall/sequential_1/xception_1/block11_sepconv3_1/separable_conv2d/ReadVariableOp"], "attr": {"padding": {"s": "U0FNRQ=="}, "data_format": {"s": "TkhXQw=="}, "T": {"type": "DT_FLOAT"}, "explicit_paddings": {"list": {}}, "dilations": {"list": {"i": ["1", "1", "1", "1"]}}, "strides": {"list": {"i": ["1", "1", "1", "1"]}}}}, {"name": "StatefulPartitionedCall/sequential_1/xception_1/block11_sepconv3_bn_1/batchnorm/add_1", "op": "_FusedConv2D", "input": ["StatefulPartitionedCall/sequential_1/xception_1/block11_sepconv3_1/separable_conv2d/depthwise", "StatefulPartitionedCall/sequential_1/xception_1/block11_sepconv3_1/separable_conv2d/merged_input", "StatefulPartitionedCall/sequential_1/xception_1/block11_sepconv3_bn_1/batchnorm/sub"], "device": "/device:CPU:0", "attr": {"num_host_args": {"i": "0"}, "data_format": {"s": "TkhXQw=="}, "filter_format": {"s": "SFdJTw=="}, "fused_ops": {"list": {"s": ["Qmlhc0FkZA=="]}}, "num_args": {"i": "1"}, "strides": {"list": {"i": ["1", "1", "1", "1"]}}, "TArgs": {"list": {"type": ["DT_FLOAT"]}}, "padding": {"s": "VkFMSUQ="}, "use_cudnn_on_gpu": {"b": true}, "leakyrelu_alpha": {"f": 0.2}, "epsilon": {"f": 0.0}, "T": {"type": "DT_FLOAT"}, "explicit_paddings": {"list": {}}, "dilations": {"list": {"i": ["1", "1", "1", "1"]}}}}, {"name": "StatefulPartitionedCall/sequential_1/xception_1/add_9_1/Add", "op": "AddV2", "input": ["StatefulPartitionedCall/sequential_1/xception_1/block11_sepconv3_bn_1/batchnorm/add_1", "StatefulPartitionedCall/sequential_1/xception_1/add_8_1/Add"], "attr": {"T": {"type": "DT_FLOAT"}}}, {"name": "StatefulPartitionedCall/sequential_1/xception_1/block12_sepconv1_act_1/Relu", "op": "Relu", "input": ["StatefulPartitionedCall/sequential_1/xception_1/add_9_1/Add"], "attr": {"T": {"type": "DT_FLOAT"}}}, {"name": "StatefulPartitionedCall/sequential_1/xception_1/block12_sepconv1_1/separable_conv2d/depthwise", "op": "DepthwiseConv2dNative", "input": ["StatefulPartitionedCall/sequential_1/xception_1/block12_sepconv1_act_1/Relu", "StatefulPartitionedCall/sequential_1/xception_1/block12_sepconv1_1/separable_conv2d/ReadVariableOp"], "attr": {"padding": {"s": "U0FNRQ=="}, "data_format": {"s": "TkhXQw=="}, "T": {"type": "DT_FLOAT"}, "explicit_paddings": {"list": {}}, "dilations": {"list": {"i": ["1", "1", "1", "1"]}}, "strides": {"list": {"i": ["1", "1", "1", "1"]}}}}, {"name": "StatefulPartitionedCall/sequential_1/xception_1/block12_sepconv2_act_1/Relu", "op": "_FusedConv2D", "input": ["StatefulPartitionedCall/sequential_1/xception_1/block12_sepconv1_1/separable_conv2d/depthwise", "StatefulPartitionedCall/sequential_1/xception_1/block12_sepconv1_1/separable_conv2d/merged_input", "StatefulPartitionedCall/sequential_1/xception_1/block12_sepconv1_bn_1/batchnorm/sub"], "device": "/device:CPU:0", "attr": {"num_host_args": {"i": "0"}, "data_format": {"s": "TkhXQw=="}, "filter_format": {"s": "SFdJTw=="}, "strides": {"list": {"i": ["1", "1", "1", "1"]}}, "num_args": {"i": "1"}, "fused_ops": {"list": {"s": ["Qmlhc0FkZA==", "UmVsdQ=="]}}, "TArgs": {"list": {"type": ["DT_FLOAT"]}}, "padding": {"s": "VkFMSUQ="}, "use_cudnn_on_gpu": {"b": true}, "leakyrelu_alpha": {"f": 0.2}, "epsilon": {"f": 0.0}, "T": {"type": "DT_FLOAT"}, "explicit_paddings": {"list": {}}, "dilations": {"list": {"i": ["1", "1", "1", "1"]}}}}, {"name": "StatefulPartitionedCall/sequential_1/xception_1/block12_sepconv2_1/separable_conv2d/depthwise", "op": "DepthwiseConv2dNative", "input": ["StatefulPartitionedCall/sequential_1/xception_1/block12_sepconv2_act_1/Relu", "StatefulPartitionedCall/sequential_1/xception_1/block12_sepconv2_1/separable_conv2d/ReadVariableOp"], "attr": {"padding": {"s": "U0FNRQ=="}, "data_format": {"s": "TkhXQw=="}, "T": {"type": "DT_FLOAT"}, "explicit_paddings": {"list": {}}, "dilations": {"list": {"i": ["1", "1", "1", "1"]}}, "strides": {"list": {"i": ["1", "1", "1", "1"]}}}}, {"name": "StatefulPartitionedCall/sequential_1/xception_1/block12_sepconv3_act_1/Relu", "op": "_FusedConv2D", "input": ["StatefulPartitionedCall/sequential_1/xception_1/block12_sepconv2_1/separable_conv2d/depthwise", "StatefulPartitionedCall/sequential_1/xception_1/block12_sepconv2_1/separable_conv2d/merged_input", "StatefulPartitionedCall/sequential_1/xception_1/block12_sepconv2_bn_1/batchnorm/sub"], "device": "/device:CPU:0", "attr": {"num_host_args": {"i": "0"}, "data_format": {"s": "TkhXQw=="}, "filter_format": {"s": "SFdJTw=="}, "fused_ops": {"list": {"s": ["Qmlhc0FkZA==", "UmVsdQ=="]}}, "num_args": {"i": "1"}, "strides": {"list": {"i": ["1", "1", "1", "1"]}}, "TArgs": {"list": {"type": ["DT_FLOAT"]}}, "padding": {"s": "VkFMSUQ="}, "use_cudnn_on_gpu": {"b": true}, "leakyrelu_alpha": {"f": 0.2}, "epsilon": {"f": 0.0}, "T": {"type": "DT_FLOAT"}, "explicit_paddings": {"list": {}}, "dilations": {"list": {"i": ["1", "1", "1", "1"]}}}}, {"name": "StatefulPartitionedCall/sequential_1/xception_1/block12_sepconv3_1/separable_conv2d/depthwise", "op": "DepthwiseConv2dNative", "input": ["StatefulPartitionedCall/sequential_1/xception_1/block12_sepconv3_act_1/Relu", "StatefulPartitionedCall/sequential_1/xception_1/block12_sepconv3_1/separable_conv2d/ReadVariableOp"], "attr": {"padding": {"s": "U0FNRQ=="}, "data_format": {"s": "TkhXQw=="}, "T": {"type": "DT_FLOAT"}, "explicit_paddings": {"list": {}}, "dilations": {"list": {"i": ["1", "1", "1", "1"]}}, "strides": {"list": {"i": ["1", "1", "1", "1"]}}}}, {"name": "StatefulPartitionedCall/sequential_1/xception_1/block12_sepconv3_bn_1/batchnorm/add_1", "op": "_FusedConv2D", "input": ["StatefulPartitionedCall/sequential_1/xception_1/block12_sepconv3_1/separable_conv2d/depthwise", "StatefulPartitionedCall/sequential_1/xception_1/block12_sepconv3_1/separable_conv2d/merged_input", "StatefulPartitionedCall/sequential_1/xception_1/block12_sepconv3_bn_1/batchnorm/sub"], "device": "/device:CPU:0", "attr": {"num_host_args": {"i": "0"}, "data_format": {"s": "TkhXQw=="}, "filter_format": {"s": "SFdJTw=="}, "fused_ops": {"list": {"s": ["Qmlhc0FkZA=="]}}, "num_args": {"i": "1"}, "strides": {"list": {"i": ["1", "1", "1", "1"]}}, "TArgs": {"list": {"type": ["DT_FLOAT"]}}, "padding": {"s": "VkFMSUQ="}, "use_cudnn_on_gpu": {"b": true}, "leakyrelu_alpha": {"f": 0.2}, "epsilon": {"f": 0.0}, "T": {"type": "DT_FLOAT"}, "explicit_paddings": {"list": {}}, "dilations": {"list": {"i": ["1", "1", "1", "1"]}}}}, {"name": "StatefulPartitionedCall/sequential_1/xception_1/add_10_1/Add", "op": "AddV2", "input": ["StatefulPartitionedCall/sequential_1/xception_1/block12_sepconv3_bn_1/batchnorm/add_1", "StatefulPartitionedCall/sequential_1/xception_1/add_9_1/Add"], "attr": {"T": {"type": "DT_FLOAT"}}}, {"name": "StatefulPartitionedCall/sequential_1/xception_1/batch_normalization_3_1/batchnorm/add_1", "op": "_FusedConv2D", "input": ["StatefulPartitionedCall/sequential_1/xception_1/add_10_1/Add", "StatefulPartitionedCall/sequential_1/xception_1/conv2d_3_1/convolution/merged_input", "StatefulPartitionedCall/sequential_1/xception_1/batch_normalization_3_1/batchnorm/sub"], "device": "/device:CPU:0", "attr": {"num_host_args": {"i": "0"}, "data_format": {"s": "TkhXQw=="}, "filter_format": {"s": "SFdJTw=="}, "strides": {"list": {"i": ["1", "2", "2", "1"]}}, "num_args": {"i": "1"}, "fused_ops": {"list": {"s": ["Qmlhc0FkZA=="]}}, "TArgs": {"list": {"type": ["DT_FLOAT"]}}, "padding": {"s": "U0FNRQ=="}, "use_cudnn_on_gpu": {"b": true}, "leakyrelu_alpha": {"f": 0.2}, "epsilon": {"f": 0.0}, "T": {"type": "DT_FLOAT"}, "explicit_paddings": {"list": {}}, "dilations": {"list": {"i": ["1", "1", "1", "1"]}}}}, {"name": "StatefulPartitionedCall/sequential_1/xception_1/block13_sepconv1_act_1/Relu", "op": "Relu", "input": ["StatefulPartitionedCall/sequential_1/xception_1/add_10_1/Add"], "attr": {"T": {"type": "DT_FLOAT"}}}, {"name": "StatefulPartitionedCall/sequential_1/xception_1/block13_sepconv1_1/separable_conv2d/depthwise", "op": "DepthwiseConv2dNative", "input": ["StatefulPartitionedCall/sequential_1/xception_1/block13_sepconv1_act_1/Relu", "StatefulPartitionedCall/sequential_1/xception_1/block13_sepconv1_1/separable_conv2d/ReadVariableOp"], "attr": {"padding": {"s": "U0FNRQ=="}, "data_format": {"s": "TkhXQw=="}, "T": {"type": "DT_FLOAT"}, "explicit_paddings": {"list": {}}, "dilations": {"list": {"i": ["1", "1", "1", "1"]}}, "strides": {"list": {"i": ["1", "1", "1", "1"]}}}}, {"name": "StatefulPartitionedCall/sequential_1/xception_1/block13_sepconv2_act_1/Relu", "op": "_FusedConv2D", "input": ["StatefulPartitionedCall/sequential_1/xception_1/block13_sepconv1_1/separable_conv2d/depthwise", "StatefulPartitionedCall/sequential_1/xception_1/block13_sepconv1_1/separable_conv2d/merged_input", "StatefulPartitionedCall/sequential_1/xception_1/block13_sepconv1_bn_1/batchnorm/sub"], "device": "/device:CPU:0", "attr": {"num_host_args": {"i": "0"}, "data_format": {"s": "TkhXQw=="}, "filter_format": {"s": "SFdJTw=="}, "strides": {"list": {"i": ["1", "1", "1", "1"]}}, "num_args": {"i": "1"}, "fused_ops": {"list": {"s": ["Qmlhc0FkZA==", "UmVsdQ=="]}}, "TArgs": {"list": {"type": ["DT_FLOAT"]}}, "padding": {"s": "VkFMSUQ="}, "use_cudnn_on_gpu": {"b": true}, "leakyrelu_alpha": {"f": 0.2}, "epsilon": {"f": 0.0}, "T": {"type": "DT_FLOAT"}, "explicit_paddings": {"list": {}}, "dilations": {"list": {"i": ["1", "1", "1", "1"]}}}}, {"name": "StatefulPartitionedCall/sequential_1/xception_1/block13_sepconv2_1/separable_conv2d/depthwise", "op": "DepthwiseConv2dNative", "input": ["StatefulPartitionedCall/sequential_1/xception_1/block13_sepconv2_act_1/Relu", "StatefulPartitionedCall/sequential_1/xception_1/block13_sepconv2_1/separable_conv2d/ReadVariableOp"], "attr": {"padding": {"s": "U0FNRQ=="}, "data_format": {"s": "TkhXQw=="}, "T": {"type": "DT_FLOAT"}, "explicit_paddings": {"list": {}}, "dilations": {"list": {"i": ["1", "1", "1", "1"]}}, "strides": {"list": {"i": ["1", "1", "1", "1"]}}}}, {"name": "StatefulPartitionedCall/sequential_1/xception_1/block13_sepconv2_bn_1/batchnorm/add_1", "op": "_FusedConv2D", "input": ["StatefulPartitionedCall/sequential_1/xception_1/block13_sepconv2_1/separable_conv2d/depthwise", "StatefulPartitionedCall/sequential_1/xception_1/block13_sepconv2_1/separable_conv2d/merged_input", "StatefulPartitionedCall/sequential_1/xception_1/block13_sepconv2_bn_1/batchnorm/sub"], "device": "/device:CPU:0", "attr": {"num_host_args": {"i": "0"}, "data_format": {"s": "TkhXQw=="}, "filter_format": {"s": "SFdJTw=="}, "fused_ops": {"list": {"s": ["Qmlhc0FkZA=="]}}, "num_args": {"i": "1"}, "strides": {"list": {"i": ["1", "1", "1", "1"]}}, "TArgs": {"list": {"type": ["DT_FLOAT"]}}, "padding": {"s": "VkFMSUQ="}, "use_cudnn_on_gpu": {"b": true}, "leakyrelu_alpha": {"f": 0.2}, "epsilon": {"f": 0.0}, "T": {"type": "DT_FLOAT"}, "explicit_paddings": {"list": {}}, "dilations": {"list": {"i": ["1", "1", "1", "1"]}}}}, {"name": "StatefulPartitionedCall/sequential_1/xception_1/block13_pool_1/MaxPool2d", "op": "MaxPool", "input": ["StatefulPartitionedCall/sequential_1/xception_1/block13_sepconv2_bn_1/batchnorm/add_1"], "attr": {"padding": {"s": "U0FNRQ=="}, "data_format": {"s": "TkhXQw=="}, "T": {"type": "DT_FLOAT"}, "explicit_paddings": {"list": {}}, "ksize": {"list": {"i": ["1", "3", "3", "1"]}}, "strides": {"list": {"i": ["1", "2", "2", "1"]}}}}, {"name": "StatefulPartitionedCall/sequential_1/xception_1/add_11_1/Add", "op": "AddV2", "input": ["StatefulPartitionedCall/sequential_1/xception_1/block13_pool_1/MaxPool2d", "StatefulPartitionedCall/sequential_1/xception_1/batch_normalization_3_1/batchnorm/add_1"], "attr": {"T": {"type": "DT_FLOAT"}}}, {"name": "StatefulPartitionedCall/sequential_1/xception_1/block14_sepconv1_1/separable_conv2d/depthwise", "op": "DepthwiseConv2dNative", "input": ["StatefulPartitionedCall/sequential_1/xception_1/add_11_1/Add", "StatefulPartitionedCall/sequential_1/xception_1/block14_sepconv1_1/separable_conv2d/ReadVariableOp"], "attr": {"padding": {"s": "U0FNRQ=="}, "data_format": {"s": "TkhXQw=="}, "T": {"type": "DT_FLOAT"}, "explicit_paddings": {"list": {}}, "dilations": {"list": {"i": ["1", "1", "1", "1"]}}, "strides": {"list": {"i": ["1", "1", "1", "1"]}}}}, {"name": "StatefulPartitionedCall/sequential_1/xception_1/block14_sepconv1_act_1/Relu", "op": "_FusedConv2D", "input": ["StatefulPartitionedCall/sequential_1/xception_1/block14_sepconv1_1/separable_conv2d/depthwise", "StatefulPartitionedCall/sequential_1/xception_1/block14_sepconv1_1/separable_conv2d/merged_input", "StatefulPartitionedCall/sequential_1/xception_1/block14_sepconv1_bn_1/batchnorm/sub"], "device": "/device:CPU:0", "attr": {"num_host_args": {"i": "0"}, "data_format": {"s": "TkhXQw=="}, "filter_format": {"s": "SFdJTw=="}, "fused_ops": {"list": {"s": ["Qmlhc0FkZA==", "UmVsdQ=="]}}, "num_args": {"i": "1"}, "strides": {"list": {"i": ["1", "1", "1", "1"]}}, "TArgs": {"list": {"type": ["DT_FLOAT"]}}, "padding": {"s": "VkFMSUQ="}, "use_cudnn_on_gpu": {"b": true}, "leakyrelu_alpha": {"f": 0.2}, "epsilon": {"f": 0.0}, "T": {"type": "DT_FLOAT"}, "explicit_paddings": {"list": {}}, "dilations": {"list": {"i": ["1", "1", "1", "1"]}}}}, {"name": "StatefulPartitionedCall/sequential_1/xception_1/block14_sepconv2_1/separable_conv2d/depthwise", "op": "DepthwiseConv2dNative", "input": ["StatefulPartitionedCall/sequential_1/xception_1/block14_sepconv1_act_1/Relu", "StatefulPartitionedCall/sequential_1/xception_1/block14_sepconv2_1/separable_conv2d/ReadVariableOp"], "attr": {"padding": {"s": "U0FNRQ=="}, "data_format": {"s": "TkhXQw=="}, "T": {"type": "DT_FLOAT"}, "explicit_paddings": {"list": {}}, "dilations": {"list": {"i": ["1", "1", "1", "1"]}}, "strides": {"list": {"i": ["1", "1", "1", "1"]}}}}, {"name": "StatefulPartitionedCall/sequential_1/xception_1/block14_sepconv2_act_1/Relu", "op": "_FusedConv2D", "input": ["StatefulPartitionedCall/sequential_1/xception_1/block14_sepconv2_1/separable_conv2d/depthwise", "StatefulPartitionedCall/sequential_1/xception_1/block14_sepconv2_1/separable_conv2d/merged_input", "StatefulPartitionedCall/sequential_1/xception_1/block14_sepconv2_bn_1/batchnorm/sub"], "device": "/device:CPU:0", "attr": {"num_host_args": {"i": "0"}, "data_format": {"s": "TkhXQw=="}, "filter_format": {"s": "SFdJTw=="}, "strides": {"list": {"i": ["1", "1", "1", "1"]}}, "num_args": {"i": "1"}, "fused_ops": {"list": {"s": ["Qmlhc0FkZA==", "UmVsdQ=="]}}, "TArgs": {"list": {"type": ["DT_FLOAT"]}}, "padding": {"s": "VkFMSUQ="}, "use_cudnn_on_gpu": {"b": true}, "leakyrelu_alpha": {"f": 0.2}, "epsilon": {"f": 0.0}, "T": {"type": "DT_FLOAT"}, "explicit_paddings": {"list": {}}, "dilations": {"list": {"i": ["1", "1", "1", "1"]}}}}, {"name": "StatefulPartitionedCall/sequential_1/global_average_pooling2d_1/Mean", "op": "Mean", "input": ["StatefulPartitionedCall/sequential_1/xception_1/block14_sepconv2_act_1/Relu", "StatefulPartitionedCall/sequential_1/global_average_pooling2d_1/Mean/reduction_indices"], "attr": {"Tidx": {"type": "DT_INT32"}, "T": {"type": "DT_FLOAT"}, "keep_dims": {"b": false}}}, {"name": "StatefulPartitionedCall/sequential_1/dense_1/Relu", "op": "_FusedMatMul", "input": ["StatefulPartitionedCall/sequential_1/global_average_pooling2d_1/Mean", "StatefulPartitionedCall/sequential_1/dense_1/Cast/ReadVariableOp", "StatefulPartitionedCall/sequential_1/dense_1/BiasAdd/ReadVariableOp"], "device": "/device:CPU:0", "attr": {"transpose_a": {"b": false}, "transpose_b": {"b": false}, "fused_ops": {"list": {"s": ["Qmlhc0FkZA==", "UmVsdQ=="]}}, "leakyrelu_alpha": {"f": 0.2}, "num_args": {"i": "1"}, "epsilon": {"f": 0.0}, "T": {"type": "DT_FLOAT"}}}, {"name": "StatefulPartitionedCall/sequential_1/batch_normalization_4_1/batchnorm/mul_1", "op": "Mul", "input": ["StatefulPartitionedCall/sequential_1/dense_1/Relu", "StatefulPartitionedCall/sequential_1/batch_normalization_4_1/batchnorm/mul"], "attr": {"T": {"type": "DT_FLOAT"}}}, {"name": "StatefulPartitionedCall/sequential_1/batch_normalization_4_1/batchnorm/add_1", "op": "AddV2", "input": ["StatefulPartitionedCall/sequential_1/batch_normalization_4_1/batchnorm/mul_1", "StatefulPartitionedCall/sequential_1/batch_normalization_4_1/batchnorm/sub"], "attr": {"T": {"type": "DT_FLOAT"}}}, {"name": "StatefulPartitionedCall/sequential_1/dense_1_2/Relu", "op": "_FusedMatMul", "input": ["StatefulPartitionedCall/sequential_1/batch_normalization_4_1/batchnorm/add_1", "StatefulPartitionedCall/sequential_1/dense_1_2/Cast/ReadVariableOp", "StatefulPartitionedCall/sequential_1/dense_1_2/BiasAdd/ReadVariableOp"], "device": "/device:CPU:0", "attr": {"transpose_a": {"b": false}, "transpose_b": {"b": false}, "fused_ops": {"list": {"s": ["Qmlhc0FkZA==", "UmVsdQ=="]}}, "num_args": {"i": "1"}, "leakyrelu_alpha": {"f": 0.2}, "epsilon": {"f": 0.0}, "T": {"type": "DT_FLOAT"}}}, {"name": "StatefulPartitionedCall/sequential_1/batch_normalization_5_1/batchnorm/mul_1", "op": "Mul", "input": ["StatefulPartitionedCall/sequential_1/dense_1_2/Relu", "StatefulPartitionedCall/sequential_1/batch_normalization_5_1/batchnorm/mul"], "attr": {"T": {"type": "DT_FLOAT"}}}, {"name": "StatefulPartitionedCall/sequential_1/batch_normalization_5_1/batchnorm/add_1", "op": "AddV2", "input": ["StatefulPartitionedCall/sequential_1/batch_normalization_5_1/batchnorm/mul_1", "StatefulPartitionedCall/sequential_1/batch_normalization_5_1/batchnorm/sub"], "attr": {"T": {"type": "DT_FLOAT"}}}, {"name": "StatefulPartitionedCall/sequential_1/dense_2_1/BiasAdd", "op": "_FusedMatMul", "input": ["StatefulPartitionedCall/sequential_1/batch_normalization_5_1/batchnorm/add_1", "StatefulPartitionedCall/sequential_1/dense_2_1/Cast/ReadVariableOp", "StatefulPartitionedCall/sequential_1/dense_2_1/BiasAdd/ReadVariableOp"], "device": "/device:CPU:0", "attr": {"transpose_a": {"b": false}, "transpose_b": {"b": false}, "fused_ops": {"list": {"s": ["Qmlhc0FkZA=="]}}, "num_args": {"i": "1"}, "leakyrelu_alpha": {"f": 0.2}, "epsilon": {"f": 0.0}, "T": {"type": "DT_FLOAT"}}}, {"name": "StatefulPartitionedCall/sequential_1/dense_2_1/Softmax", "op": "Softmax", "input": ["StatefulPartitionedCall/sequential_1/dense_2_1/BiasAdd"], "attr": {"T": {"type": "DT_FLOAT"}}}, {"name": "Identity", "op": "Identity", "input": ["StatefulPartitionedCall/sequential_1/dense_2_1/Softmax"], "attr": {"T": {"type": "DT_FLOAT"}}}], "library": {}, "versions": {"producer": 1994}}, "weightsManifest": [{"paths": ["group1-shard1of6.bin", "group1-shard2of6.bin", "group1-shard3of6.bin", "group1-shard4of6.bin", "group1-shard5of6.bin", "group1-shard6of6.bin"], "weights": [{"name": "StatefulPartitionedCall/sequential_1/xception_1/block13_sepconv1_1/separable_conv2d/ReadVariableOp", "shape": [3, 3, 728, 1], "dtype": "float32", "quantization": {"dtype": "uint8", "min": -1.0200109313516057, "scale": 0.00790706148334578, "original_dtype": "float32"}}, {"name": "StatefulPartitionedCall/sequential_1/xception_1/block13_sepconv1_1/separable_conv2d/merged_input", "shape": [1, 1, 728, 728], "dtype": "float32", "quantization": {"dtype": "uint8", "min": -0.3982647634020039, "scale": 0.0028447483100143135, "original_dtype": "float32"}}, {"name": "StatefulPartitionedCall/sequential_1/xception_1/block13_sepconv1_bn_1/batchnorm/sub", "shape": [728], "dtype": "float32", "quantization": {"dtype": "uint8", "min": -3.1334511439005532, "scale": 0.018432065552356196, "original_dtype": "float32"}}, {"name": "StatefulPartitionedCall/sequential_1/xception_1/block13_sepconv2_1/separable_conv2d/ReadVariableOp", "shape": [3, 3, 728, 1], "dtype": "float32", "quantization": {"dtype": "uint8", "min": -0.7919916699914372, "scale": 0.005142803051892449, "original_dtype": "float32"}}, {"name": "StatefulPartitionedCall/sequential_1/xception_1/block13_sepconv2_1/separable_conv2d/merged_input", "shape": [1, 1, 728, 1024], "dtype": "float32", "quantization": {"dtype": "uint8", "min": -2.048392946579877, "scale": 0.017968359180525237, "original_dtype": "float32"}}, {"name": "StatefulPartitionedCall/sequential_1/xception_1/block13_sepconv2_bn_1/batchnorm/sub", "shape": [1024], "dtype": "float32", "quantization": {"dtype": "uint8", "min": -2.0718213474049287, "scale": 0.01438764824586756, "original_dtype": "float32"}}, {"name": "StatefulPartitionedCall/sequential_1/xception_1/block12_sepconv1_1/separable_conv2d/ReadVariableOp", "shape": [3, 3, 728, 1], "dtype": "float32", "quantization": {"dtype": "uint8", "min": -0.7144668018116671, "scale": 0.005808673185460708, "original_dtype": "float32"}}, {"name": "StatefulPartitionedCall/sequential_1/xception_1/block12_sepconv1_1/separable_conv2d/merged_input", "shape": [1, 1, 728, 728], "dtype": "float32", "quantization": {"dtype": "uint8", "min": -0.6594776850120695, "scale": 0.005072905269323611, "original_dtype": "float32"}}, {"name": "StatefulPartitionedCall/sequential_1/xception_1/block12_sepconv1_bn_1/batchnorm/sub", "shape": [728], "dtype": "float32", "quantization": {"dtype": "uint8", "min": -4.1499638276941635, "scale": 0.025937273923088523, "original_dtype": "float32"}}, {"name": "StatefulPartitionedCall/sequential_1/xception_1/block12_sepconv2_1/separable_conv2d/ReadVariableOp", "shape": [3, 3, 728, 1], "dtype": "float32", "quantization": {"dtype": "uint8", "min": -0.9331730669619991, "scale": 0.007908246330186433, "original_dtype": "float32"}}, {"name": "StatefulPartitionedCall/sequential_1/xception_1/block12_sepconv2_1/separable_conv2d/merged_input", "shape": [1, 1, 728, 728], "dtype": "float32", "quantization": {"dtype": "uint8", "min": -1.542305149751551, "scale": 0.013770581694210277, "original_dtype": "float32"}}, {"name": "StatefulPartitionedCall/sequential_1/xception_1/block12_sepconv2_bn_1/batchnorm/sub", "shape": [728], "dtype": "float32", "quantization": {"dtype": "uint8", "min": -3.0860678756938262, "scale": 0.018260756660910215, "original_dtype": "float32"}}, {"name": "StatefulPartitionedCall/sequential_1/xception_1/block12_sepconv3_1/separable_conv2d/ReadVariableOp", "shape": [3, 3, 728, 1], "dtype": "float32", "quantization": {"dtype": "uint8", "min": -0.9510324183632346, "scale": 0.006469608288185269, "original_dtype": "float32"}}, {"name": "StatefulPartitionedCall/sequential_1/xception_1/block12_sepconv3_1/separable_conv2d/merged_input", "shape": [1, 1, 728, 728], "dtype": "float32", "quantization": {"dtype": "uint8", "min": -1.5763160986058853, "scale": 0.011852000741397634, "original_dtype": "float32"}}, {"name": "StatefulPartitionedCall/sequential_1/xception_1/block12_sepconv3_bn_1/batchnorm/sub", "shape": [728], "dtype": "float32", "quantization": {"dtype": "uint8", "min": -1.5492383667066985, "scale": 0.012698675136940151, "original_dtype": "float32"}}, {"name": "StatefulPartitionedCall/sequential_1/xception_1/block11_sepconv1_1/separable_conv2d/ReadVariableOp", "shape": [3, 3, 728, 1], "dtype": "float32", "quantization": {"dtype": "uint8", "min": -0.6751215572450675, "scale": 0.00515359967362647, "original_dtype": "float32"}}, {"name": "StatefulPartitionedCall/sequential_1/xception_1/block11_sepconv1_1/separable_conv2d/merged_input", "shape": [1, 1, 728, 728], "dtype": "float32", "quantization": {"dtype": "uint8", "min": -0.6741423389490913, "scale": 0.004920746999628404, "original_dtype": "float32"}}, {"name": "StatefulPartitionedCall/sequential_1/xception_1/block11_sepconv1_bn_1/batchnorm/sub", "shape": [728], "dtype": "float32", "quantization": {"dtype": "uint8", "min": -2.377267094219432, "scale": 0.02031852217281566, "original_dtype": "float32"}}, {"name": "StatefulPartitionedCall/sequential_1/xception_1/block11_sepconv2_1/separable_conv2d/ReadVariableOp", "shape": [3, 3, 728, 1], "dtype": "float32", "quantization": {"dtype": "uint8", "min": -0.7120420862646664, "scale": 0.0054772468174205105, "original_dtype": "float32"}}, {"name": "StatefulPartitionedCall/sequential_1/xception_1/block11_sepconv2_1/separable_conv2d/merged_input", "shape": [1, 1, 728, 728], "dtype": "float32", "quantization": {"dtype": "uint8", "min": -1.402902031879799, "scale": 0.010092820373235964, "original_dtype": "float32"}}, {"name": "StatefulPartitionedCall/sequential_1/xception_1/block11_sepconv2_bn_1/batchnorm/sub", "shape": [728], "dtype": "float32", "quantization": {"dtype": "uint8", "min": -3.0802026916952694, "scale": 0.020534684611301795, "original_dtype": "float32"}}, {"name": "StatefulPartitionedCall/sequential_1/xception_1/block11_sepconv3_1/separable_conv2d/ReadVariableOp", "shape": [3, 3, 728, 1], "dtype": "float32", "quantization": {"dtype": "uint8", "min": -0.7171106268377865, "scale": 0.005691354181252274, "original_dtype": "float32"}}, {"name": "StatefulPartitionedCall/sequential_1/xception_1/block11_sepconv3_1/separable_conv2d/merged_input", "shape": [1, 1, 728, 728], "dtype": "float32", "quantization": {"dtype": "uint8", "min": -1.8404740165261662, "scale": 0.013942984973683077, "original_dtype": "float32"}}, {"name": "StatefulPartitionedCall/sequential_1/xception_1/block11_sepconv3_bn_1/batchnorm/sub", "shape": [728], "dtype": "float32", "quantization": {"dtype": "uint8", "min": -1.2402572856229894, "scale": 0.008612897816826316, "original_dtype": "float32"}}, {"name": "StatefulPartitionedCall/sequential_1/xception_1/block10_sepconv1_1/separable_conv2d/ReadVariableOp", "shape": [3, 3, 728, 1], "dtype": "float32", "quantization": {"dtype": "uint8", "min": -0.8694944381713867, "scale": 0.005835533142089844, "original_dtype": "float32"}}, {"name": "StatefulPartitionedCall/sequential_1/xception_1/block10_sepconv1_1/separable_conv2d/merged_input", "shape": [1, 1, 728, 728], "dtype": "float32", "quantization": {"dtype": "uint8", "min": -1.094111364028033, "scale": 0.008547745031469009, "original_dtype": "float32"}}, {"name": "StatefulPartitionedCall/sequential_1/xception_1/block10_sepconv1_bn_1/batchnorm/sub", "shape": [728], "dtype": "float32", "quantization": {"dtype": "uint8", "min": -2.5647903442382813, "scale": 0.022899913787841796, "original_dtype": "float32"}}, {"name": "StatefulPartitionedCall/sequential_1/xception_1/block10_sepconv2_1/separable_conv2d/ReadVariableOp", "shape": [3, 3, 728, 1], "dtype": "float32", "quantization": {"dtype": "uint8", "min": -0.759255100699032, "scale": 0.0063271258391586005, "original_dtype": "float32"}}, {"name": "StatefulPartitionedCall/sequential_1/xception_1/block10_sepconv2_1/separable_conv2d/merged_input", "shape": [1, 1, 728, 728], "dtype": "float32", "quantization": {"dtype": "uint8", "min": -1.5964868283739275, "scale": 0.013529549392999387, "original_dtype": "float32"}}, {"name": "StatefulPartitionedCall/sequential_1/xception_1/block10_sepconv2_bn_1/batchnorm/sub", "shape": [728], "dtype": "float32", "quantization": {"dtype": "uint8", "min": -2.228965118819592, "scale": 0.012884191438263538, "original_dtype": "float32"}}, {"name": "StatefulPartitionedCall/sequential_1/xception_1/block10_sepconv3_1/separable_conv2d/ReadVariableOp", "shape": [3, 3, 728, 1], "dtype": "float32", "quantization": {"dtype": "uint8", "min": -1.1054774045944213, "scale": 0.007520254453023275, "original_dtype": "float32"}}, {"name": "StatefulPartitionedCall/sequential_1/xception_1/block10_sepconv3_1/separable_conv2d/merged_input", "shape": [1, 1, 728, 728], "dtype": "float32", "quantization": {"dtype": "uint8", "min": -1.2046292641583611, "scale": 0.009955613753374885, "original_dtype": "float32"}}, {"name": "StatefulPartitionedCall/sequential_1/xception_1/block10_sepconv3_bn_1/batchnorm/sub", "shape": [728], "dtype": "float32", "quantization": {"dtype": "uint8", "min": -1.7262121696098176, "scale": 0.01092539347854315, "original_dtype": "float32"}}, {"name": "StatefulPartitionedCall/sequential_1/xception_1/block9_sepconv1_1/separable_conv2d/ReadVariableOp", "shape": [3, 3, 728, 1], "dtype": "float32", "quantization": {"dtype": "uint8", "min": -0.5009796857833863, "scale": 0.004911565546895943, "original_dtype": "float32"}}, {"name": "StatefulPartitionedCall/sequential_1/xception_1/block9_sepconv1_1/separable_conv2d/merged_input", "shape": [1, 1, 728, 728], "dtype": "float32", "quantization": {"dtype": "uint8", "min": -0.8431857403586892, "scale": 0.005775244796977323, "original_dtype": "float32"}}, {"name": "StatefulPartitionedCall/sequential_1/xception_1/block9_sepconv1_bn_1/batchnorm/sub", "shape": [728], "dtype": "float32", "quantization": {"dtype": "uint8", "min": -3.0159959035761217, "scale": 0.01997348280513988, "original_dtype": "float32"}}, {"name": "StatefulPartitionedCall/sequential_1/xception_1/block9_sepconv2_1/separable_conv2d/ReadVariableOp", "shape": [3, 3, 728, 1], "dtype": "float32", "quantization": {"dtype": "uint8", "min": -0.9689833641052247, "scale": 0.006211431821187338, "original_dtype": "float32"}}, {"name": "StatefulPartitionedCall/sequential_1/xception_1/block9_sepconv2_1/separable_conv2d/merged_input", "shape": [1, 1, 728, 728], "dtype": "float32", "quantization": {"dtype": "uint8", "min": -1.1858387909683528, "scale": 0.008849543216181737, "original_dtype": "float32"}}, {"name": "StatefulPartitionedCall/sequential_1/xception_1/block9_sepconv2_bn_1/batchnorm/sub", "shape": [728], "dtype": "float32", "quantization": {"dtype": "uint8", "min": -2.786306111952838, "scale": 0.021599272185680914, "original_dtype": "float32"}}, {"name": "StatefulPartitionedCall/sequential_1/xception_1/block9_sepconv3_1/separable_conv2d/ReadVariableOp", "shape": [3, 3, 728, 1], "dtype": "float32", "quantization": {"dtype": "uint8", "min": -1.4687022377462946, "scale": 0.00941475793427112, "original_dtype": "float32"}}, {"name": "StatefulPartitionedCall/sequential_1/xception_1/block9_sepconv3_1/separable_conv2d/merged_input", "shape": [1, 1, 728, 728], "dtype": "float32", "quantization": {"dtype": "uint8", "min": -1.8867694864086075, "scale": 0.01509415589126886, "original_dtype": "float32"}}, {"name": "StatefulPartitionedCall/sequential_1/xception_1/block9_sepconv3_bn_1/batchnorm/sub", "shape": [728], "dtype": "float32", "quantization": {"dtype": "uint8", "min": -1.5542765449075138, "scale": 0.011774822309905408, "original_dtype": "float32"}}, {"name": "StatefulPartitionedCall/sequential_1/xception_1/block8_sepconv1_1/separable_conv2d/ReadVariableOp", "shape": [3, 3, 728, 1], "dtype": "float32", "quantization": {"dtype": "uint8", "min": -0.8889755489779453, "scale": 0.0071118043918235625, "original_dtype": "float32"}}, {"name": "StatefulPartitionedCall/sequential_1/xception_1/block8_sepconv1_1/separable_conv2d/merged_input", "shape": [1, 1, 728, 728], "dtype": "float32", "quantization": {"dtype": "uint8", "min": -0.6607432449565214, "scale": 0.00611799300885668, "original_dtype": "float32"}}, {"name": "StatefulPartitionedCall/sequential_1/xception_1/block8_sepconv1_bn_1/batchnorm/sub", "shape": [728], "dtype": "float32", "quantization": {"dtype": "uint8", "min": -1.3891811501746085, "scale": 0.016153269188076844, "original_dtype": "float32"}}, {"name": "StatefulPartitionedCall/sequential_1/xception_1/block8_sepconv2_1/separable_conv2d/ReadVariableOp", "shape": [3, 3, 728, 1], "dtype": "float32", "quantization": {"dtype": "uint8", "min": -0.7367980195026772, "scale": 0.005539834733102836, "original_dtype": "float32"}}, {"name": "StatefulPartitionedCall/sequential_1/xception_1/block8_sepconv2_1/separable_conv2d/merged_input", "shape": [1, 1, 728, 728], "dtype": "float32", "quantization": {"dtype": "uint8", "min": -1.5474217513028314, "scale": 0.011812379780937644, "original_dtype": "float32"}}, {"name": "StatefulPartitionedCall/sequential_1/xception_1/block8_sepconv2_bn_1/batchnorm/sub", "shape": [728], "dtype": "float32", "quantization": {"dtype": "uint8", "min": -2.836000643524469, "scale": 0.01955862512775496, "original_dtype": "float32"}}, {"name": "StatefulPartitionedCall/sequential_1/xception_1/block8_sepconv3_1/separable_conv2d/ReadVariableOp", "shape": [3, 3, 728, 1], "dtype": "float32", "quantization": {"dtype": "uint8", "min": -0.7391018495840185, "scale": 0.005241857089248358, "original_dtype": "float32"}}, {"name": "StatefulPartitionedCall/sequential_1/xception_1/block8_sepconv3_1/separable_conv2d/merged_input", "shape": [1, 1, 728, 728], "dtype": "float32", "quantization": {"dtype": "uint8", "min": -1.640975436042337, "scale": 0.013233672871309169, "original_dtype": "float32"}}, {"name": "StatefulPartitionedCall/sequential_1/xception_1/block8_sepconv3_bn_1/batchnorm/sub", "shape": [728], "dtype": "float32", "quantization": {"dtype": "uint8", "min": -1.9341994467903585, "scale": 0.012013661160188562, "original_dtype": "float32"}}, {"name": "StatefulPartitionedCall/sequential_1/xception_1/block7_sepconv1_1/separable_conv2d/ReadVariableOp", "shape": [3, 3, 728, 1], "dtype": "float32", "quantization": {"dtype": "uint8", "min": -0.6268042143653421, "scale": 0.005137739462011, "original_dtype": "float32"}}, {"name": "StatefulPartitionedCall/sequential_1/xception_1/block7_sepconv1_1/separable_conv2d/merged_input", "shape": [1, 1, 728, 728], "dtype": "float32", "quantization": {"dtype": "uint8", "min": -0.6558373862621831, "scale": 0.005246699090097465, "original_dtype": "float32"}}, {"name": "StatefulPartitionedCall/sequential_1/xception_1/block7_sepconv1_bn_1/batchnorm/sub", "shape": [728], "dtype": "float32", "quantization": {"dtype": "uint8", "min": -2.64757391985725, "scale": 0.022063115998810414, "original_dtype": "float32"}}, {"name": "StatefulPartitionedCall/sequential_1/xception_1/block7_sepconv2_1/separable_conv2d/ReadVariableOp", "shape": [3, 3, 728, 1], "dtype": "float32", "quantization": {"dtype": "uint8", "min": -0.94987779341492, "scale": 0.006290581413343841, "original_dtype": "float32"}}, {"name": "StatefulPartitionedCall/sequential_1/xception_1/block7_sepconv2_1/separable_conv2d/merged_input", "shape": [1, 1, 728, 728], "dtype": "float32", "quantization": {"dtype": "uint8", "min": -1.0864202835980585, "scale": 0.009053502363317154, "original_dtype": "float32"}}, {"name": "StatefulPartitionedCall/sequential_1/xception_1/block7_sepconv2_bn_1/batchnorm/sub", "shape": [728], "dtype": "float32", "quantization": {"dtype": "uint8", "min": -1.6170133992737414, "scale": 0.013254208190768373, "original_dtype": "float32"}}, {"name": "StatefulPartitionedCall/sequential_1/xception_1/block7_sepconv3_1/separable_conv2d/ReadVariableOp", "shape": [3, 3, 728, 1], "dtype": "float32", "quantization": {"dtype": "uint8", "min": -1.1853539448158412, "scale": 0.007697103537765203, "original_dtype": "float32"}}, {"name": "StatefulPartitionedCall/sequential_1/xception_1/block7_sepconv3_1/separable_conv2d/merged_input", "shape": [1, 1, 728, 728], "dtype": "float32", "quantization": {"dtype": "uint8", "min": -1.2020507279564352, "scale": 0.009616405823651482, "original_dtype": "float32"}}, {"name": "StatefulPartitionedCall/sequential_1/xception_1/block7_sepconv3_bn_1/batchnorm/sub", "shape": [728], "dtype": "float32", "quantization": {"dtype": "uint8", "min": -1.620681619644165, "scale": 0.013619173274320714, "original_dtype": "float32"}}, {"name": "StatefulPartitionedCall/sequential_1/xception_1/block6_sepconv1_1/separable_conv2d/ReadVariableOp", "shape": [3, 3, 728, 1], "dtype": "float32", "quantization": {"dtype": "uint8", "min": -0.7238093694051106, "scale": 0.005322127716214049, "original_dtype": "float32"}}, {"name": "StatefulPartitionedCall/sequential_1/xception_1/block6_sepconv1_1/separable_conv2d/merged_input", "shape": [1, 1, 728, 728], "dtype": "float32", "quantization": {"dtype": "uint8", "min": -0.9542858441670736, "scale": 0.00701680767769907, "original_dtype": "float32"}}, {"name": "StatefulPartitionedCall/sequential_1/xception_1/block6_sepconv1_bn_1/batchnorm/sub", "shape": [728], "dtype": "float32", "quantization": {"dtype": "uint8", "min": -4.459179104075712, "scale": 0.02654273276235543, "original_dtype": "float32"}}, {"name": "StatefulPartitionedCall/sequential_1/xception_1/block6_sepconv2_1/separable_conv2d/ReadVariableOp", "shape": [3, 3, 728, 1], "dtype": "float32", "quantization": {"dtype": "uint8", "min": -1.2618297212264118, "scale": 0.008088652059143666, "original_dtype": "float32"}}, {"name": "StatefulPartitionedCall/sequential_1/xception_1/block6_sepconv2_1/separable_conv2d/merged_input", "shape": [1, 1, 728, 728], "dtype": "float32", "quantization": {"dtype": "uint8", "min": -1.285039887708776, "scale": 0.010447478761859969, "original_dtype": "float32"}}, {"name": "StatefulPartitionedCall/sequential_1/xception_1/block6_sepconv2_bn_1/batchnorm/sub", "shape": [728], "dtype": "float32", "quantization": {"dtype": "uint8", "min": -2.0182461532891964, "scale": 0.01940621301239612, "original_dtype": "float32"}}, {"name": "StatefulPartitionedCall/sequential_1/xception_1/block6_sepconv3_1/separable_conv2d/ReadVariableOp", "shape": [3, 3, 728, 1], "dtype": "float32", "quantization": {"dtype": "uint8", "min": -1.3600828970179837, "scale": 0.008144208964179544, "original_dtype": "float32"}}, {"name": "StatefulPartitionedCall/sequential_1/xception_1/block6_sepconv3_1/separable_conv2d/merged_input", "shape": [1, 1, 728, 728], "dtype": "float32", "quantization": {"dtype": "uint8", "min": -1.7611277734532076, "scale": 0.013045390914468205, "original_dtype": "float32"}}, {"name": "StatefulPartitionedCall/sequential_1/xception_1/block6_sepconv3_bn_1/batchnorm/sub", "shape": [728], "dtype": "float32", "quantization": {"dtype": "uint8", "min": -1.285501973769244, "scale": 0.01147769619436825, "original_dtype": "float32"}}, {"name": "StatefulPartitionedCall/sequential_1/xception_1/block5_sepconv1_1/separable_conv2d/ReadVariableOp", "shape": [3, 3, 728, 1], "dtype": "float32", "quantization": {"dtype": "uint8", "min": -0.6500039633582619, "scale": 0.005603482442743638, "original_dtype": "float32"}}, {"name": "StatefulPartitionedCall/sequential_1/xception_1/block5_sepconv1_1/separable_conv2d/merged_input", "shape": [1, 1, 728, 728], "dtype": "float32", "quantization": {"dtype": "uint8", "min": -1.0846040164723116, "scale": 0.008890196856330423, "original_dtype": "float32"}}, {"name": "StatefulPartitionedCall/sequential_1/xception_1/block5_sepconv1_bn_1/batchnorm/sub", "shape": [728], "dtype": "float32", "quantization": {"dtype": "uint8", "min": -4.6039273579915365, "scale": 0.03385240704405541, "original_dtype": "float32"}}, {"name": "StatefulPartitionedCall/sequential_1/xception_1/block5_sepconv2_1/separable_conv2d/ReadVariableOp", "shape": [3, 3, 728, 1], "dtype": "float32", "quantization": {"dtype": "uint8", "min": -0.9178192405139699, "scale": 0.00777812915689805, "original_dtype": "float32"}}, {"name": "StatefulPartitionedCall/sequential_1/xception_1/block5_sepconv2_1/separable_conv2d/merged_input", "shape": [1, 1, 728, 728], "dtype": "float32", "quantization": {"dtype": "uint8", "min": -1.8365955235911349, "scale": 0.01469276418872908, "original_dtype": "float32"}}, {"name": "StatefulPartitionedCall/sequential_1/xception_1/block5_sepconv2_bn_1/batchnorm/sub", "shape": [728], "dtype": "float32", "quantization": {"dtype": "uint8", "min": -2.9632574156218885, "scale": 0.022794287812476065, "original_dtype": "float32"}}, {"name": "StatefulPartitionedCall/sequential_1/xception_1/block5_sepconv3_1/separable_conv2d/ReadVariableOp", "shape": [3, 3, 728, 1], "dtype": "float32", "quantization": {"dtype": "uint8", "min": -1.4483884175618489, "scale": 0.010649914835013595, "original_dtype": "float32"}}, {"name": "StatefulPartitionedCall/sequential_1/xception_1/block5_sepconv3_1/separable_conv2d/merged_input", "shape": [1, 1, 728, 728], "dtype": "float32", "quantization": {"dtype": "uint8", "min": -1.937623610683516, "scale": 0.013362921452989765, "original_dtype": "float32"}}, {"name": "StatefulPartitionedCall/sequential_1/xception_1/block5_sepconv3_bn_1/batchnorm/sub", "shape": [728], "dtype": "float32", "quantization": {"dtype": "uint8", "min": -1.6134492042017918, "scale": 0.010211703824061974, "original_dtype": "float32"}}, {"name": "StatefulPartitionedCall/sequential_1/xception_1/block4_sepconv1_1/separable_conv2d/ReadVariableOp", "shape": [3, 3, 256, 1], "dtype": "float32", "quantization": {"dtype": "uint8", "min": -1.2079637359170354, "scale": 0.009151240423613904, "original_dtype": "float32"}}, {"name": "StatefulPartitionedCall/sequential_1/xception_1/block4_sepconv1_1/separable_conv2d/merged_input", "shape": [1, 1, 256, 728], "dtype": "float32", "quantization": {"dtype": "uint8", "min": -0.813703161127427, "scale": 0.00666969804202809, "original_dtype": "float32"}}, {"name": "StatefulPartitionedCall/sequential_1/xception_1/block4_sepconv1_bn_1/batchnorm/sub", "shape": [728], "dtype": "float32", "quantization": {"dtype": "uint8", "min": -4.873133715461282, "scale": 0.04060944762884402, "original_dtype": "float32"}}, {"name": "StatefulPartitionedCall/sequential_1/xception_1/block4_sepconv2_1/separable_conv2d/ReadVariableOp", "shape": [3, 3, 728, 1], "dtype": "float32", "quantization": {"dtype": "uint8", "min": -0.8398082443312104, "scale": 0.008398082443312103, "original_dtype": "float32"}}, {"name": "StatefulPartitionedCall/sequential_1/xception_1/block4_sepconv2_1/separable_conv2d/merged_input", "shape": [1, 1, 728, 728], "dtype": "float32", "quantization": {"dtype": "uint8", "min": -0.6964418100375755, "scale": 0.007653206703709621, "original_dtype": "float32"}}, {"name": "StatefulPartitionedCall/sequential_1/xception_1/block4_sepconv2_bn_1/batchnorm/sub", "shape": [728], "dtype": "float32", "quantization": {"dtype": "uint8", "min": -3.5293462687847663, "scale": 0.02337315409791236, "original_dtype": "float32"}}, {"name": "StatefulPartitionedCall/sequential_1/xception_1/block3_sepconv1_1/separable_conv2d/ReadVariableOp", "shape": [3, 3, 128, 1], "dtype": "float32", "quantization": {"dtype": "uint8", "min": -1.9272671797696284, "scale": 0.013291497791514678, "original_dtype": "float32"}}, {"name": "StatefulPartitionedCall/sequential_1/xception_1/block3_sepconv1_1/separable_conv2d/merged_input", "shape": [1, 1, 128, 256], "dtype": "float32", "quantization": {"dtype": "uint8", "min": -0.6537189686999602, "scale": 0.006109523071962245, "original_dtype": "float32"}}, {"name": "StatefulPartitionedCall/sequential_1/xception_1/block3_sepconv1_bn_1/batchnorm/sub", "shape": [256], "dtype": "float32", "quantization": {"dtype": "uint8", "min": -7.85514820323271, "scale": 0.058620508979348576, "original_dtype": "float32"}}, {"name": "StatefulPartitionedCall/sequential_1/xception_1/block3_sepconv2_1/separable_conv2d/ReadVariableOp", "shape": [3, 3, 256, 1], "dtype": "float32", "quantization": {"dtype": "uint8", "min": -1.1806897574780035, "scale": 0.0086181734122482, "original_dtype": "float32"}}, {"name": "StatefulPartitionedCall/sequential_1/xception_1/block3_sepconv2_1/separable_conv2d/merged_input", "shape": [1, 1, 256, 256], "dtype": "float32", "quantization": {"dtype": "uint8", "min": -1.133077767316033, "scale": 0.008583922479666916, "original_dtype": "float32"}}, {"name": "StatefulPartitionedCall/sequential_1/xception_1/block3_sepconv2_bn_1/batchnorm/sub", "shape": [256], "dtype": "float32", "quantization": {"dtype": "uint8", "min": -2.9115627251419367, "scale": 0.024674260382558787, "original_dtype": "float32"}}, {"name": "StatefulPartitionedCall/sequential_1/xception_1/block2_sepconv1_1/separable_conv2d/ReadVariableOp", "shape": [3, 3, 64, 1], "dtype": "float32", "quantization": {"dtype": "uint8", "min": -2.2691744215348186, "scale": 0.01759049939174278, "original_dtype": "float32"}}, {"name": "StatefulPartitionedCall/sequential_1/xception_1/block2_sepconv1_1/separable_conv2d/merged_input", "shape": [1, 1, 64, 128], "dtype": "float32", "quantization": {"dtype": "uint8", "min": -0.9742150131393882, "scale": 0.007436755825491513, "original_dtype": "float32"}}, {"name": "StatefulPartitionedCall/sequential_1/xception_1/block2_sepconv1_bn_1/batchnorm/sub", "shape": [128], "dtype": "float32", "quantization": {"dtype": "uint8", "min": -2.438096186693977, "scale": 0.025135012233958524, "original_dtype": "float32"}}, {"name": "StatefulPartitionedCall/sequential_1/xception_1/block2_sepconv2_1/separable_conv2d/ReadVariableOp", "shape": [3, 3, 128, 1], "dtype": "float32", "quantization": {"dtype": "uint8", "min": -1.5694792326758888, "scale": 0.011373037917941224, "original_dtype": "float32"}}, {"name": "StatefulPartitionedCall/sequential_1/xception_1/block2_sepconv2_1/separable_conv2d/merged_input", "shape": [1, 1, 128, 128], "dtype": "float32", "quantization": {"dtype": "uint8", "min": -0.9974323646695006, "scale": 0.007792440348980473, "original_dtype": "float32"}}, {"name": "StatefulPartitionedCall/sequential_1/xception_1/block2_sepconv2_bn_1/batchnorm/sub", "shape": [128], "dtype": "float32", "quantization": {"dtype": "uint8", "min": -2.259181561189539, "scale": 0.02755099464865292, "original_dtype": "float32"}}, {"name": "StatefulPartitionedCall/sequential_1/xception_1/block1_conv1_1/convolution/merged_input", "shape": [3, 3, 3, 32], "dtype": "float32", "quantization": {"dtype": "uint8", "min": -1.5745361136455163, "scale": 0.011492964333178951, "original_dtype": "float32"}}, {"name": "StatefulPartitionedCall/sequential_1/xception_1/block1_conv1_bn_1/batchnorm/sub", "shape": [32], "dtype": "float32", "quantization": {"dtype": "uint8", "min": -1.5558086844051586, "scale": 0.019447608555064482, "original_dtype": "float32"}}, {"name": "StatefulPartitionedCall/sequential_1/xception_1/block1_conv2_1/convolution/merged_input", "shape": [3, 3, 32, 64], "dtype": "float32", "quantization": {"dtype": "uint8", "min": -1.1621698898427626, "scale": 0.00887152587666231, "original_dtype": "float32"}}, {"name": "StatefulPartitionedCall/sequential_1/xception_1/block1_conv2_bn_1/batchnorm/sub", "shape": [64], "dtype": "float32", "quantization": {"dtype": "uint8", "min": -6.31031748827766, "scale": 0.057366522620706, "original_dtype": "float32"}}, {"name": "StatefulPartitionedCall/sequential_1/xception_1/conv2d_1/convolution/merged_input", "shape": [1, 1, 64, 128], "dtype": "float32", "quantization": {"dtype": "uint8", "min": -0.7783823013305664, "scale": 0.0065410277422736675, "original_dtype": "float32"}}, {"name": "StatefulPartitionedCall/sequential_1/xception_1/batch_normalization_1/batchnorm/sub", "shape": [128], "dtype": "float32", "quantization": {"dtype": "uint8", "min": -2.4228307088216146, "scale": 0.02163241704305013, "original_dtype": "float32"}}, {"name": "StatefulPartitionedCall/sequential_1/xception_1/conv2d_1_2/convolution/merged_input", "shape": [1, 1, 128, 256], "dtype": "float32", "quantization": {"dtype": "uint8", "min": -0.445510489099166, "scale": 0.003427003762301277, "original_dtype": "float32"}}, {"name": "StatefulPartitionedCall/sequential_1/xception_1/batch_normalization_1_2/batchnorm/sub", "shape": [256], "dtype": "float32", "quantization": {"dtype": "uint8", "min": -5.305965038374358, "scale": 0.036342226290235334, "original_dtype": "float32"}}, {"name": "StatefulPartitionedCall/sequential_1/xception_1/conv2d_2_1/convolution/merged_input", "shape": [1, 1, 256, 728], "dtype": "float32", "quantization": {"dtype": "uint8", "min": -0.24177770988613953, "scale": 0.0018598285375856886, "original_dtype": "float32"}}, {"name": "StatefulPartitionedCall/sequential_1/xception_1/batch_normalization_2_1/batchnorm/sub", "shape": [728], "dtype": "float32", "quantization": {"dtype": "uint8", "min": -3.6497036148520077, "scale": 0.027860332937801584, "original_dtype": "float32"}}, {"name": "StatefulPartitionedCall/sequential_1/xception_1/conv2d_3_1/convolution/merged_input", "shape": [1, 1, 728, 1024], "dtype": "float32", "quantization": {"dtype": "uint8", "min": -0.13297364314397178, "scale": 0.0011174255726384183, "original_dtype": "float32"}}, {"name": "StatefulPartitionedCall/sequential_1/xception_1/batch_normalization_3_1/batchnorm/sub", "shape": [1024], "dtype": "float32", "quantization": {"dtype": "uint8", "min": -2.125853098607531, "scale": 0.01529390718422684, "original_dtype": "float32"}}, {"name": "StatefulPartitionedCall/sequential_1/xception_1/block14_sepconv1_1/separable_conv2d/ReadVariableOp", "shape": [3, 3, 1024, 1], "dtype": "float32", "quantization": {"dtype": "uint8", "min": -1.0996926017836028, "scale": 0.007854947155597163, "original_dtype": "float32"}}, {"name": "StatefulPartitionedCall/sequential_1/xception_1/block14_sepconv1_1/separable_conv2d/merged_input", "shape": [1, 1, 1024, 1536], "dtype": "float32", "quantization": {"dtype": "uint8", "min": -0.2750733113756367, "scale": 0.0019371359956030752, "original_dtype": "float32"}}, {"name": "StatefulPartitionedCall/sequential_1/xception_1/block14_sepconv1_bn_1/batchnorm/sub", "shape": [1536], "dtype": "float32", "quantization": {"dtype": "uint8", "min": -1.826699197993559, "scale": 0.011488674201217353, "original_dtype": "float32"}}, {"name": "StatefulPartitionedCall/sequential_1/xception_1/block14_sepconv2_1/separable_conv2d/ReadVariableOp", "shape": [3, 3, 1536, 1], "dtype": "float32", "quantization": {"dtype": "uint8", "min": -0.48157045397104004, "scale": 0.003979921107198678, "original_dtype": "float32"}}, {"name": "StatefulPartitionedCall/sequential_1/xception_1/block14_sepconv2_1/separable_conv2d/merged_input", "shape": [1, 1, 1536, 2048], "dtype": "float32", "quantization": {"dtype": "uint8", "min": -0.5662186527953428, "scale": 0.0038518275700363458, "original_dtype": "float32"}}, {"name": "StatefulPartitionedCall/sequential_1/xception_1/block14_sepconv2_bn_1/batchnorm/sub", "shape": [2048], "dtype": "float32", "quantization": {"dtype": "uint8", "min": -0.25198151702974353, "scale": 0.0028312530003341972, "original_dtype": "float32"}}, {"name": "StatefulPartitionedCall/sequential_1/global_average_pooling2d_1/Mean/reduction_indices", "shape": [2], "dtype": "int32"}, {"name": "StatefulPartitionedCall/sequential_1/dense_1/Cast/ReadVariableOp", "shape": [2048, 512], "dtype": "float32", "quantization": {"dtype": "uint8", "min": -0.07808711856019263, "scale": 0.0006100556137515049, "original_dtype": "float32"}}, {"name": "StatefulPartitionedCall/sequential_1/dense_1/BiasAdd/ReadVariableOp", "shape": [512], "dtype": "float32", "quantization": {"dtype": "uint8", "min": -0.022347741581353487, "scale": 0.00021696836486750958, "original_dtype": "float32"}}, {"name": "StatefulPartitionedCall/sequential_1/batch_normalization_4_1/batchnorm/mul", "shape": [512], "dtype": "float32", "quantization": {"dtype": "uint8", "min": 6.859106063842773, "scale": 0.09618857888614431, "original_dtype": "float32"}}, {"name": "StatefulPartitionedCall/sequential_1/batch_normalization_4_1/batchnorm/sub", "shape": [512], "dtype": "float32", "quantization": {"dtype": "uint8", "min": -1.523250851407647, "scale": 0.0060687284916639325, "original_dtype": "float32"}}, {"name": "StatefulPartitionedCall/sequential_1/dense_1_2/Cast/ReadVariableOp", "shape": [512, 128], "dtype": "float32", "quantization": {"dtype": "uint8", "min": -0.13028211511817633, "scale": 0.001002170116293664, "original_dtype": "float32"}}, {"name": "StatefulPartitionedCall/sequential_1/dense_1_2/BiasAdd/ReadVariableOp", "shape": [128], "dtype": "float32", "quantization": {"dtype": "uint8", "min": -0.011872168809321581, "scale": 0.00024228915937390982, "original_dtype": "float32"}}, {"name": "StatefulPartitionedCall/sequential_1/batch_normalization_5_1/batchnorm/mul", "shape": [128], "dtype": "float32", "quantization": {"dtype": "uint8", "min": 0.5702067017555237, "scale": 0.001938791134778191, "original_dtype": "float32"}}, {"name": "StatefulPartitionedCall/sequential_1/batch_normalization_5_1/batchnorm/sub", "shape": [128], "dtype": "float32", "quantization": {"dtype": "uint8", "min": -0.8758932948112488, "scale": 0.0011950158605388568, "original_dtype": "float32"}}, {"name": "StatefulPartitionedCall/sequential_1/dense_2_1/Cast/ReadVariableOp", "shape": [128, 7], "dtype": "float32", "quantization": {"dtype": "uint8", "min": -0.22652077674865723, "scale": 0.0018876731395721436, "original_dtype": "float32"}}, {"name": "StatefulPartitionedCall/sequential_1/dense_2_1/BiasAdd/ReadVariableOp", "shape": [7], "dtype": "float32", "quantization": {"dtype": "uint8", "min": -0.07265035311381021, "scale": 0.0005341937728956633, "original_dtype": "float32"}}]}]}